04/model.pth (torch, 15388 bytes, 10 tensors)

shared_net.0.weight f4 [16, 4]
0.108924806 0.20273376 0.135207 -0.13119805 0.037979662 -0.05249232 -0.031312883 -0.08026153
0.23662877 -0.14289922 -0.13991374 0.09278017 0.15480298 -0.47731203 -0.38089985 0.37833208
-0.14008981 0.4829958 -0.3305896 0.13274163 -0.045134366 -0.24469483 -0.4496171 -0.201621
0.41853732 0.45690155 -0.19734836 0.2724201 -0.18473667 -0.33032447 -0.21273994 -0.4763639
0.20555627 0.20295769 -0.48694444 0.09195912 -0.083930016 -0.40465844 -0.1573878 0.30690396
-0.44790733 0.35012108 0.17404026 -0.28512245 0.38737166 -0.31624037 0.19012523 0.40358818
0.3212816 0.31012666 -0.00028765202 -0.4113803 0.4287135 0.22480422 -0.42722058 0.29049265
-0.4076022 -0.0867033 0.2165497 0.01214397 -0.28176314 -0.2667179 -0.3477729 -0.46651673
00000000: f813 df3d 7099 4f3e b473 0a3e c858 06be
00000010: 9090 1b3d 3002 57bd f041 00bd 2860 a4bd
00000020: d04e 723e 2c54 12be 8c45 0fbe 8803 be3d
00000030: ac84 1e3e 3e62 f4be 4e05 c3be beb4 c13e
00000040: b473 0fbe 3a4b f73e 0a43 a9be 6ced 073e
00000050: d0de 38bd 4891 7abe 3634 e6be bc75 4ebe
00000060: 864a d63e 00ef e93e b015 4abe a67a 8b3e
00000070: 9c2b 3dbe 4a20 a9be 80d8 59be f8e5 f3be
00000080: 587d 523e 24d4 4f3e c850 f9be 1055 bc3d
00000090: 80e3 abbd 642f cfbe 442a 21be 8422 9d3e
000000a0: 1c54 e5be 1243 b33e 9c37 323e 92fb 91be
000000b0: 9455 c63e 42ea a1be 30b0 423e 1ca3 ce3e
000000c0: 067f a43e ecc8 9e3e 00d0 96b9 70a0 d2be
000000d0: 5680 db3e 1433 663e a8bc dabe 74bb 943e
000000e0: 3cb1 d0be 8091 b1bd 34bf 5d3e 80f7 463c
000000f0: 4243 90be 408f 88be 4a0f b2be 48db eebe

shared_net.0.bias f4 [16]
-0.11235553 0.117462754 -0.39896476 -0.4252084 0.036795378 -0.3198427 -0.21140379 0.39345086
0.38262266 0.18063498 0.48795933 0.21368086 0.447385 -0.090910554 0.47445816 0.3798238
00000000: a81a e6bd 5090 f03d 1c45 ccbe eab4 d9be
00000010: c0b6 163d 6cc2 a3be 3c7a 58be 6472 c93e
00000020: 1ee7 c33e 60f8 383e ced5 f93e 28cf 5a3e
00000030: a60f e53e 502f babd 2eec f23e 4478 c23e

shared_net.2.weight f4 [32, 16]
-0.044429272 -0.22377443 -0.015960157 -0.21906894 0.035471022 0.1785779 0.042758137 0.21734616
-0.036605567 0.032984734 -0.066786945 0.13557485 -0.1922664 -0.16410905 0.23321128 0.07994139
0.17957312 0.11715245 0.08663106 -0.17708993 0.17134634 0.106218934 0.12940788 -0.19938111
-0.107372105 0.23606402 0.1845173 -0.11118221 0.09453842 0.2310929 0.16992065 0.106648594
-0.20510668 0.082817405 -0.22434062 -0.18638724 0.18146709 0.17334437 -0.2037782 -0.2056815
-0.17835295 0.21142194 -0.012680739 -0.24756444 -0.11019024 -0.05058226 -0.15003529 -0.12217268
-0.014775336 0.056275338 -0.16908956 -0.23401967 -0.08133507 0.09720659 -0.23878857 0.06185776
-0.00475809 0.07803646 0.017698914 -0.034246176 -0.12759781 0.21816516 0.16331792 -0.18869951
0.065782756 0.15998566 -0.114734024 0.18711588 -0.20968041 -0.012165278 -0.02425167 -0.042176276
-0.15989187 0.15211162 -0.16980064 0.2301645 0.21863523 -0.1860547 0.037017882 -0.18720692
-0.036476076 -0.04820326 -0.002809614 -0.08522889 0.21639219 0.066313446 0.148866 -0.04069063
-0.20794758 -0.1721783 -0.03414908 -0.018608272 0.100247055 -0.10643533 -0.050543547 0.20894265
-0.12997857 0.0019791126 0.06294805 0.16163796 0.12552434 0.12450817 0.075594395 -0.01367718
-0.06400168 0.18486384 -0.15295681 0.012532234 0.20333278 0.16302788 0.008415341 -0.24170172
0.056956947 -0.21368381 -0.027333826 0.19546571 0.18234953 -0.07297945 0.030212134 -0.0076912045
-0.031471252 0.12972254 -0.076918244 0.07719925 0.012916237 0.08048436 0.013950974 0.1688196
-0.24190322 -0.22037572 0.23379236 0.23045072 0.025857866 0.22817302 0.20731276 0.18752694
0.19846591 -0.18371579 -0.23979187 0.19048065 0.24660152 -0.14853072 0.20974088 0.107511014
-0.06228739 -0.19335139 -0.0550642 0.17051291 0.23501071 -0.028753668 0.17535692 0.1996144
0.17957762 -0.021503478 -0.22781882 0.09923434 -0.0843215 0.22974494 -0.23954684 -0.016597867
-0.023084074 0.16931507 -0.24038067 0.24312833 -0.24961409 0.049429655 -0.044281214 -0.0556421
-0.049163878 0.035121977 -0.048060596 0.052182555 0.022111923 0.22372535 -0.21756306 -0.0102286935
0.16992006 -0.08657476 -0.03989169 -0.046311438 0.2405071 -0.21692976 0.17335275 -0.23888779
-0.02322802 -0.20744327 -0.024783552 0.11079839 0.130025 0.020645887 -0.15448019 0.1956791
0.060686648 -0.14353067 -0.06269574 0.06765771 0.01006484 0.029930264 -0.15014404 0.21526894
-0.1301702 0.17936155 -0.21745458 -0.08428407 0.0035615563 0.019385636 -0.16558576 -0.106728375
0.14067 -0.24167678 -0.14935532 -0.21903661 0.084827244 -0.16424683 -0.24097627 0.044178963
-0.036908627 -0.062431008 0.14615858 -0.07606748 0.14249891 0.025967628 -0.10317233 0.13109869
0.16448495 -0.16227478 -0.11859527 0.13787264 -0.1520144 -0.09753823 0.10530043 0.14704242
-0.23674682 0.081169754 0.040650964 0.1335684 -0.24946931 -0.13861278 -0.24886644 0.12518692
0.19511864 -0.091229886 -0.09956133 0.02125594 -0.046385378 -0.11905664 0.055713624 -0.108379364
-0.12083191 0.15657315 -0.058449715 0.047965378 0.08739078 0.014973551 0.07853818 0.036743343
00000000: 78fb 35bd 2025 65be e0be 82bc 9c53 60be
00000010: 104a 113d 20dd 363e 2823 2f3d fe8f 5e3e
00000020: b8ef 15bd 001b 073d 98c7 88bd 22d4 0a3e
00000030: 7ce1 44be 340c 28be f0ce 6e3e 50b8 a33d
00000040: 04e2 373e a0ed ef3d a06b b13d 1057 35be
00000050: 6a75 2f3e 5089 d93d 8083 043e 902a 4cbe
00000060: e8e5 dbbd c4ba 713e 1af2 3c3e 80b3 e3bd
00000070: 5c9d c13d 9ea3 6c3e aeff 2d3e 946a da3d
00000080: 7c07 52be 2c9c a93d 8cb9 65be 4cdc 3ebe
00000090: 82d2 393e 3081 313e 3cab 50be 2c9e 52be
000000a0: 28a2 36be fe7e 583e e0c2 4fbc 8881 7dbe
000000b0: 6cab e1bd 582f 4fbd daa2 19be ac35 fabd
000000c0: 4014 72bc f880 663d d025 2dbe daa2 6fbe
000000d0: 0093 a6bd 4014 c73d fe84 74be 905e 7d3d
000000e0: c0e9 9bbb 94d1 9f3d 50fd 903c b845 0cbd
000000f0: 00a9 02be b066 5f3e d03c 273e 723a 41be
00000100: 1cb9 863d 48d3 233e acf9 eabd 4e9b 3f3e
00000110: 76b6 56be e050 47bc 70ab c6bc 08c1 2cbd
00000120: b2ba 23be 26c3 1b3e 38e0 2dbe 3eb0 6b3e
00000130: eae1 5f3e 2085 3ebe 10a0 173d 2cb3 3fbe
00000140: f067 15bd c870 45bd 8021 38bb 7c8c aebd
00000150: ea95 5d3e 58cf 873d 5470 183e 38ab 26bd
00000160: 36f0 54be 824f 30be e8df 0bbd 6070 98bc
00000170: 544e cd3d c4fa d9bd c006 4fbd 10f5 553e
00000180: 1a19 05be 00b4 013b e8ea 803d 6c84 253e
00000190: 7489 003e 24fe fe3d 3cd1 9a3d 4016 60bc
000001a0: 5013 83bd f24c 3d3e b6a0 1cbe 0054 4d3c
000001b0: 7836 503e c8f0 263e 80e0 093c a880 77be
000001c0: b04b 693d eecf 5abe 30eb dfbc 2a28 483e
000001d0: d6b9 3a3e 4076 95bd 707f f73c 8006 fcbb
000001e0: 00e8 00bd fcd5 043e 5087 9dbd a41a 9e3d
000001f0: a09e 533c fcd4 a43d a092 643c 0cdf 2c3e
00000200: 7ab5 77be 2caa 61be 4467 6f3e 46fb 6b3e
00000210: e0d3 d33c 30a6 693e cc49 543e 1007 403e
00000220: a63a 4b3e fe1f 3cbe 008c 75be 5c0d 433e
00000230: 1c85 7c3e 7018 18be 50c6 563e bc2e dc3d
00000240: 1021 7fbd e8fd 45be 008b 61bd f09a 2e3e
00000250: a6a6 703e d08c ebbc c490 333e b867 4c3e
00000260: 32e3 373e 1028 b0bc 5649 69be 603b cb3d
00000270: c0b0 acbd 4242 6b3e c44b 75be 40f8 87bc
00000280: d01a bdbc ee60 2d3e 5a26 76be a2f6 783e
00000290: d69a 7fbe c076 4a3d 3860 35bd f8e8 63bd
000002a0: 1060 49bd 10dc 0f3d 30db 44bd 60bd 553d
000002b0: 1024 b53c 4218 653e dac8 5ebe 4096 27bc
000002c0: 86ff 2d3e 1c4e b1bd 7865 23bd 10b1 3dbd
000002d0: 7e47 763e d622 5ebe 6283 313e 009f 74be
000002e0: b048 bebc 026c 54be e006 cbbc 44ea e23d
000002f0: 4625 053e 9021 a93c 0e30 1ebe 1a60 483e
00000300: 9092 783d b4f9 12be a066 80bd 2090 8a3d
00000310: 00e7 243c 5030 f53c 5cbf 19be 766f 5c3e
00000320: 564b 05be 8eaa 373e 6aac 5ebe 209d acbd
00000330: 0069 693b a0ce 9e3c 508f 29be 6894 dabd
00000340: cc0b 103e 1e7a 77be 9af0 18be 224b 60be
00000350: e8b9 ad3d 5230 28be 7cc2 76be 00f5 343d
00000360: 802d 17bd a8b7 7fbd 98aa 153e 44c9 9bbd
00000370: 3ceb 113e 10ba d43c 044c d3bd bc3e 063e
00000380: be6e 283e 5c2b 26be 14e2 f2bd 7c2e 0d3e
00000390: aaa9 1bbe 20c2 c7bd c0a7 d73d 4a92 163e
000003a0: c26d 72be 543c a63d a081 263d 28c6 083e
000003b0: e274 7fbe 82f0 0dbe d8d6 7ebe 0031 003e
000003c0: 2ecd 473e bcd6 babd d0e6 cbbd f020 ae3c
000003d0: 98fe 3dbd f8d3 f3bd f833 643d 00f6 ddbd
000003e0: b876 f7bd b654 203e f868 6fbd 5877 443d
000003f0: f0f9 b23d a053 753c a0d8 a03d 3080 163d

shared_net.2.bias f4 [32]
0.15699682 0.14609697 0.16488194 -0.14953619 -0.07514104 0.10688606 -0.14393485 0.2025209
0.005743891 0.167012 -0.06751844 -0.16657987 0.040434152 0.06476337 -0.019356668 -0.04306528
0.22826931 -0.117887825 0.21274614 -0.12983695 -0.098854184 0.050261647 -0.1440281 0.15195939
-0.0046361983 0.029137969 0.080631465 0.104496 0.19933775 0.21713427 0.17458478 -0.0028851032
00000000: c6c3 203e 729a 153e d0d6 283e 0420 19be
00000010: 8ce3 99bd 14e7 da3d a863 13be a461 4f3e
00000020: 4037 bc3b 3205 2b3e 1c47 8abd ea93 2abe
00000030: 489e 253d a8a2 843d e091 9ebc 3865 30bd
00000040: 6ebf 693e 2c6f f1bd 20da 593e faf3 04be
00000050: 1074 cabd 28df 4d3d 1a7c 13be 3e9b 1b3e
00000060: 40eb 97bb c0b2 ee3c 1c22 a53d 0002 d63d
00000070: 321f 4c3e 7258 5e3e 5ac6 323e 0014 3dbb

shared_net.4.weight f4 [64, 32]
-0.15821603 -0.074942134 0.1173688 -0.058644406 -0.031071872 0.12657888 -0.12652117 0.1344196
-0.09422052 0.072050884 0.16095756 -0.17303334 0.012821719 0.11437337 -0.07652228 0.08262141
0.15763725 0.09079848 0.13695173 0.10716741 0.022608012 0.15477638 -0.044501796 -0.1496218
-0.059369907 -0.047917232 0.011617079 -0.13151751 0.029266521 0.060622767 0.17432873 -0.13194717
-0.059763364 -0.010697797 0.16652687 -0.11309643 0.025257513 0.16232283 0.111594096 0.17643087
-0.01356934 0.13186903 -0.13791342 0.100787655 -0.0041518807 0.075932845 0.10698585 -0.16118602
-0.07741735 -0.12913114 0.1627693 0.041234702 0.08725141 0.076775566 0.018381357 -0.14569737
0.09600322 -0.00057679415 -0.08146676 -0.099955946 -0.0208828 0.107585415 -0.16652931 -0.091545545
-0.084620334 0.064561695 -0.07460519 0.06904496 -0.05264637 0.075910315 -0.154438 0.04379669
-0.060080476 -0.16163963 -0.12003751 0.14193524 -0.096507914 0.17419006 0.103532985 -0.045074433
0.17257501 0.02452226 0.07358162 -0.11359697 -0.06832729 0.14575441 0.120945826 0.025197133
-0.12732565 -0.0073008835 -0.16663127 0.14706574 -0.16665134 0.009478956 -0.14223 -0.14670083
-0.15678833 0.10145785 0.088336155 0.0062758625 0.11111958 -0.13779782 0.073395446 -0.16368312
0.06624715 0.046265557 -0.09787659 0.10710649 0.119026944 -0.042489693 -0.014153123 -0.16349338
0.08030699 0.12513079 -0.063332066 -0.11625455 0.043712154 -0.15019819 0.15901937 0.103311226
-0.14505517 0.12868772 0.09980415 0.09347515 -0.14832762 0.0800084 -0.16495122 -0.019133091
-0.13962853 -0.16052906 0.06637432 -0.0017869025 -0.030163318 -0.13584034 -0.16819787 0.05225596
0.1141959 -0.00022259355 -0.08616375 -0.14050978 0.13165812 -0.07196901 0.10272409 0.033005238
-0.06933925 0.10746686 -0.17176786 0.047850356 -0.16451214 -0.17028454 0.042349026 -0.06560351
0.015196294 0.1412249 0.0021628141 0.06095098 0.018218845 0.10443516 -0.020053044 -0.11226487
0.05123754 0.08587091 0.043371975 0.04665211 0.15219657 -0.006468758 0.13343771 -0.062722854
0.12217979 0.061542153 0.12965734 0.059654802 -0.13701075 0.08169921 -0.16789246 0.15440701
0.1201479 0.15900733 0.063589945 0.020809054 0.09612171 -0.17350233 0.064345494 -0.032607332
-0.07363147 0.02095683 -0.115293086 -0.049392104 0.02523698 -0.17160396 -0.021341711 0.15560056
0.1456234 0.0010621846 -0.1582714 -0.13003448 0.006797299 -0.10364361 -0.11683503 0.0030690879
0.006549582 -0.016429156 0.06385349 -0.045812607 -0.134967 0.07206875 0.019110963 -0.046159357
0.03747548 0.15104018 -0.072256744 0.06248352 0.048094586 0.031760514 -0.07204738 0.08865072
0.06001267 -0.09469973 -0.03261228 0.057237923 -0.09447751 0.062795565 0.027806997 0.040073305
0.07157907 0.1041006 0.0023475736 0.1321304 0.033027455 -0.14003685 -0.1576874 -0.08469051
0.008602887 0.16989689 -0.12880525 -0.17310686 -0.0053471476 0.07922344 0.0020335466 0.10249086
0.1156546 -0.09031298 -0.108960874 0.16646923 -0.06611334 0.06347802 0.16913708 -0.08507084
0.14142357 -0.16067106 0.07588939 -0.015178084 0.05977203 0.1475779 0.024597198 0.012578815
00000000: 6203 22be 437b 99bd 0e5f f03d 1e35 70bd
00000010: 708a febc e59d 013e c48e 01be 4ba5 093e
00000020: b0f6 c0bd 6a8f 933d 0fd2 243e a72f 31be
00000030: 3012 523c 963c ea3d b7b7 9cbd 6a35 a93d
00000040: a96b 213e 8ef4 b93d 133d 0c3e 967a db3d
00000050: 7034 b93c b37d 1e3e 8447 36bd 7536 19be
00000060: dc2d 73bd dc44 44bd 9055 3e3c 87ac 06be
00000070: 58c0 ef3c 944f 783d 3b83 323e 291d 07be
00000080: 6eca 74bd d045 2fbc 0586 2a3e 1a9f e7bd
00000090: d8e8 ce3c f537 263e 728b e43d 4baa 343e
000000a0: f051 5ebc ad08 073e 2d39 0dbe c269 ce3d
000000b0: 800c 88bb ae82 9b3d 661b db3d f30d 25be
000000c0: fd8c 9ebd f43a 04be ffac 263e b8e5 283d
000000d0: deb0 b23d 823c 9d3d 8094 963c b131 15be
000000e0: 569d c43d 0034 17ba 0bd8 a6bd b4b5 ccbd
000000f0: 6812 abbc be55 dc3d a986 2abe 3b7c bbbd
00000100: 6d4d adbd ec38 843d 9bca 98bd 7267 8d3d
00000110: b8a3 57bd de76 9b3d ff24 1ebe 2864 333d
00000120: f216 76bd dc84 25be 3ad6 f5bd 7957 113e
00000130: f1a5 c5bd e15e 323e 1a09 d43d f89f 38bd
00000140: 81b7 303e e8e2 c83c f6b1 963d 87a5 e8bd
00000150: 2eef 8bbd a540 153e 72b2 f73d 386a ce3c
00000160: a861 02be 403c efbb 63a1 2abe 6798 163e
00000170: a6a6 2abe a04d 1b3c bea4 11be be38 16be
00000180: 1f8d 20be 22c9 cf3d 96e9 b43d c0a5 cd3b
00000190: aa92 e33d df1a 0dbe 5a50 963d 8c9c 27be
000001a0: 96ac 873d f480 3d3d 8673 c8bd a65a db3d
000001b0: 66c4 f33d ac09 2ebd 80e2 67bc cf6a 27be
000001c0: fe77 a43d 4922 003e 3eb4 81bd de16 eebd
000001d0: 840b 333d 8ecd 19be f9d5 223e d694 d33d
000001e0: 5889 14be b7c6 033e 1e66 cc3d e66f bf3d
000001f0: 32e3 17be 72db a33d f9e8 28be 00bd 9cbc
00000200: c8fa 0ebe bb61 24be 42ef 873d 8036 eaba
00000210: 1019 f7bc bb19 0bbe 103c 2cbe 580a 563d
00000220: 8adf e93d 0068 69b9 9f76 b0bd cce1 0fbe
00000230: 63d1 063e 7d64 93bd 0261 d23d 8030 073d
00000240: bd01 8ebd 9617 dc3d eae3 2fbe bcfe 433d
00000250: df75 28be 125f 2ebe 2c76 2d3d 225b 86bd
00000260: e0f9 783c 439d 103e 00be 0d3b bca7 793d
00000270: b03f 953c 1ae2 d53d 4846 a4bc 20eb e5bd
00000280: 74de 513d 16dd af3d d0a6 313d 4816 3f3d
00000290: 6bd9 1b3e e0f7 d3bb e5a3 083e d774 80bd
000002a0: 6639 fa3d a013 7c3d e5c4 043e 9858 743d
000002b0: 8c4c 0cbe ea51 a73d 00ec 2bbe df1c 1e3e
000002c0: 1a10 f63d d1d2 223e 723b 823d c077 aa3c
000002d0: 76db c43d 98aa 31be 92c7 833d 448f 05bd
000002e0: 19cc 96bd a8ad ab3c c81e ecbd 604f 4abd
000002f0: c8bd ce3c f3b8 2fbe d0d4 aebc c155 1f3e
00000300: 4d1e 153e 0039 8b3a e611 22be c227 05be
00000310: e0bb de3b 1a43 d4bd 3447 efbd c022 493b
00000320: e09d d63b 7096 86bc 9ec5 823d 00a6 3bbd
00000330: ca34 0abe c898 933d 988e 9c3c 9811 3dbd
00000340: e47f 193d 47aa 1a3e 58fb 93bd b8ee 7f3d
00000350: d4fe 443d 5017 023d 948d 93bd 828e b53d
00000360: d8cf 753d eff1 c1bd 7494 05bd 5072 6a3d
00000370: 6d7d c1bd f69a 803d 80cb e33c e823 243d
00000380: 0c98 923d b232 d53d c0d9 193b 314d 073e
00000390: cc47 073d d265 0fbe ce78 21be 3872 adbd
000003a0: 20f3 0c3c 73f9 2d3e 86e5 03be ed42 31be
000003b0: 2037 afbb e63f a23d 4045 053b bae6 d13d
000003c0: 52dc ec3d 03f6 b8bd e126 dfbd e976 2a3e
000003d0: 6e66 87bd c400 823d 4532 2d3e 9f39 aebd
000003e0: 57d1 103e f486 24be e66b 9b3d 80ad 78bc
000003f0: 84d3 743d a91e 173e 1080 c93c 6017 4e3c

shared_net.4.bias f4 [64]
-0.16704847 -0.11013483 0.04693286 -0.009005204 -0.023095459 -0.16678505 0.10373746 -0.046565488
0.047037885 0.050780654 -0.096793294 0.059522375 0.10987027 0.15032367 0.16779129 0.17544352
-0.034575462 -0.17472969 -0.13094875 0.10886334 0.1709872 0.1619385 -0.11537027 0.16595112
0.15434878 0.098319545 -0.15854542 0.122262076 -0.07771649 -0.041859046 -0.06208688 -0.11358864
-0.1400333 -0.13972764 -0.1574992 0.0868638 -0.12851687 -0.009209886 0.035650015 0.082221285
-0.14551894 -0.104603924 0.0063709617 -0.09803422 -0.049125567 -0.11682731 0.014666915 -0.013149157
0.07162045 0.0842434 0.049171865 -0.17046165 0.14177324 -0.04358074 0.15792878 0.13957728
0.026094884 0.031294495 -0.037073463 0.024538502 -0.08784665 -0.032922164 -0.11395443 -0.09269592
00000000: c10e 2bbe 5f8e e1bd ac3c 403d 908a 13bc
00000010: b032 bdbc b3c9 2abe 4e74 d43d 74bb 3ebd
00000020: ccaa 403d 60ff 4f3d 903b c6bd bccd 733d
00000030: aa03 e13d 73ee 193e 7bd1 2b3e 77a7 333e
00000040: 009f 0dbd 57ec 32be 6e17 06be bef3 de3d
00000050: 4517 2f3e 35d3 253e 4047 ecbd 17ef 293e
00000060: 9b0d 1e3e c25b c93d bb59 22be 8a64 fa3d
00000070: d329 9fbd 6474 2bbd d04e 7ebd 29a1 e8bd
00000080: e464 0fbe c314 0fbe 7847 21be a6e5 b13d
00000090: ed99 03be 10e5 16bc c005 123d a263 a83d
000000a0: eb02 15be 953a d6bd 80c3 d03b 2ac6 c8bd
000000b0: e437 49bd 2843 efbd 804d 703c 906f 57bc
000000c0: bead 923d ce87 ac3d 7068 493d 808d 2ebe
000000d0: 012d 113e b881 32bd 15b8 213e 59ed 0e3e
000000e0: f0c4 d53c a82e 003d 58da 17bd f804 c93c
000000f0: f2e8 b3bd 64d9 06bd f160 e9bd 5cd7 bdbd

policy_mean_net.0.weight f4 [2, 64]
-0.054182887 0.12040688 0.034176946 0.07913804 0.03808169 -0.058748573 0.018939212 -0.008908391
-0.00031509995 0.07210936 -0.011469752 0.08179532 -0.0188867 0.1175331 -0.071207 -0.017931774
-0.118236735 -0.09799588 -0.10123864 -0.05890812 -0.11821623 0.021361575 -0.07564476 -0.09801252
0.08834435 0.0503131 -0.028393567 -0.10407527 -0.05748725 -0.079971716 0.088605806 -0.012724176
0.081251666 0.05934398 -0.063912675 -0.06504613 0.0260759 -0.07220869 -0.112193525 0.037668437
0.1014134 0.02554144 -0.034422576 0.12100397 -0.065443784 0.054161176 -0.10388942 0.028167084
0.08322191 0.113583505 0.087279856 -0.09730692 0.046254084 0.061074704 -0.05054599 0.09135525
-0.07981263 -0.01269795 -0.06736907 0.06929995 -0.035752922 -0.015642703 -0.005263135 0.1166179
0.050298005 0.06941764 -0.049571216 -0.12145987 -0.105052486 0.11288814 -0.030158028 -0.05622618
0.017520055 -0.053896695 0.087640375 -0.07276657 -0.049278364 0.028417826 0.06737161 0.11370261
-0.0047591627 0.043015927 0.0790793 0.060170963 0.11867523 0.050425828 -0.11867446 0.1030374
-0.049340457 0.046759635 -0.091651276 0.05807464 0.092197105 0.0331769 0.11629431 -0.09763783
-0.08829206 0.011160955 -0.06318928 -0.091815025 0.090100855 0.028099194 -0.024463862 0.048593774
0.045382395 0.054310277 -0.09303054 0.11673987 0.0013780743 0.037833974 0.08714993 -0.020978943
0.08415654 0.11701527 0.013011649 -0.09659411 0.03551507 0.1154487 0.06303942 0.06157422
0.07717511 -0.105586335 0.11551237 -0.009024277 0.024639085 0.1097877 -0.080869734 0.087997586
00000000: e0ee 5dbd e297 f63d 20fd 0b3d 2013 a23d
00000010: 8cfb 1b3d 58a2 70bd 6826 9b3c 80f4 11bc
00000020: 0034 a5b9 12ae 933d a0eb 3bbc 4e84 a73d
00000030: 48b8 9abc 32b5 f03d fad4 91bd a8e5 92bc
00000040: 1a26 f2bd 10b2 c8bd 3456 cfbd a449 71bd
00000050: 5a1b f2bd 78fe ae3c a4eb 9abd caba c8bd
00000060: e2ed b43d 1c15 4e3d a099 e8bc 6a25 d5bd
00000070: c077 6bbd 36c8 a3bd f676 b53d 1079 50bc
00000080: 4667 a63d ac12 733d a6e4 82bd e836 85bd
00000090: 209d d53c 26e2 93bd b8c5 e5bd 384a 1a3d
000000a0: d4b1 cf3d 483c d13c b0fe 0cbd eed0 f73d
000000b0: 6407 86bd 1cd8 5d3d fac3 d4bd a8be e63c
000000c0: 4070 aa3d 789e e83d c8bf b23d da48 c7bd
000000d0: ec74 3d3d 7829 7a3d 5009 4fbd 7618 bb3d
000000e0: ce74 a3bd 100b 50bc ccf8 89bd 22ed 8d3d
000000f0: a871 12bd 2025 80bc 6076 acbb 5ed5 ee3d
00000100: 4805 4e3d d62a 8e3d 300b 4bbd f4bf f8bd
00000110: c225 d7bd e631 e73d f80d f7bc 6c4d 66bd
00000120: 3886 8f3c c8c2 5cbd cc7c b33d a406 95bd
00000130: 1cd8 49bd 80cc e83c 20fa 893d eadc e83d
00000140: c0f2 9bbb 7831 303d 54f4 a13d d475 763d
00000150: 000c f33d 508b 4e3d 980b f3bd 4605 d33d
00000160: 3819 4abd 0887 3f3d aab3 bbbd acdf 6d3d
00000170: d6d1 bc3d 80e4 073d b62b ee3d 58f6 c7bd
00000180: 78d2 b4bd 70dc 363c 6269 81bd 8409 bcbd
00000190: cc86 b83d 4830 e63c 7068 c8bc 440a 473d
000001a0: e4e2 393d 7474 5e3d cc86 bebd 5015 ef3d
000001b0: 80a0 b43a ccf7 1a3d aa7b b23d 08dc abbc
000001c0: 445a ac3d b4a5 ef3d d02e 553c 22d3 c5bd
000001d0: 4078 113d 5e70 ec3d d01a 813d 4035 7c3d
000001e0: fc0d 9e3d a63d d8bd c091 ec3d 90da 13bc
000001f0: e8d7 c93c 60d8 e03d 089f a5bd 1438 b43d

policy_mean_net.0.bias f4 [2]
0.091362566 0.117708236
00000000: 4c1c bb3d 0411 f13d

policy_stddev_net.0.weight f4 [2, 64]
-0.1237662 -0.022707984 -0.056110963 0.124807596 -0.05431868 0.08131927 0.10771929 0.010518253
0.036808074 0.06802176 -0.008711174 -0.11149724 -0.11473918 -0.098884225 0.08023739 0.009839997
0.038151756 0.12032205 0.06572765 0.10292934 -0.10094668 -0.071885034 -0.121476084 0.11620355
0.017004669 -0.024518535 0.012393773 0.09219082 0.08934118 0.103386804 -0.02768749 0.10896143
0.03784576 0.06698643 0.0013843328 0.046511725 0.024058014 -0.11216809 0.050757855 0.04500051
0.013193876 -0.02474323 0.07180935 0.094025135 -0.031440943 0.056434467 0.10019857 0.0764502
-0.10998145 0.04139863 0.04945378 -0.105137736 -0.09636472 -0.08618012 0.094739735 -0.019665852
0.11299853 0.12125456 0.084483996 -0.08432463 -0.05896969 0.11094536 -0.09992333 0.07900028
0.06598824 0.06436309 -0.09939699 0.06725626 -0.102020234 0.0019521862 -0.07525727 -0.061662436
0.07547881 -0.016616896 -0.053452104 -0.069603994 0.042421013 0.05100748 -0.05101627 0.11053197
-0.07633668 -0.002462566 0.09517196 -0.090893015 -0.10510796 -0.11191948 -0.10936226 0.053226233
-0.021118507 -0.008520246 -0.0030264407 0.008753955 -0.10008599 0.07082391 0.03393513 0.0025728792
-0.0013972223 -0.09117788 -0.05080588 -0.0918408 -0.07329622 0.11013071 0.07347806 0.102070585
-0.011252344 0.103623435 0.061909243 0.12336108 0.06997721 -0.104602456 0.037595168 -0.008615047
-0.09009093 0.10565469 0.016782463 0.025675565 -0.056233853 -0.029350579 -0.037989214 0.013596848
-0.06011945 0.10040474 -0.044886753 0.007481277 0.08147474 0.006035164 0.011919633 0.12034753
00000000: 2279 fdbd 1806 babc 9cd4 65bd 209b ff3d
00000010: 447d 5ebd b88a a63d ee9b dc3d c054 2c3c
00000020: 10c4 163d fe4e 8b3d 50b9 0ebc aa58 e4bd
00000030: 60fc eabd d083 cabd 8053 a43d f037 213c
00000040: 0445 1c3d 686b f63d 389c 863d 9ecc d23d
00000050: 22bd cebd 7638 93bd 74c8 f8bd 20fc ed3d
00000060: 604d 8b3c 18db c8bc 400f 4b3c 8ace bc3d
00000070: 82f8 b63d 76bc d33d e0d0 e2bc 2c27 df3d
00000080: 2804 1b3d 2e30 893d 8072 b53a 1483 3e3d
00000090: 5015 c53c 62b8 e5bd 78e7 4f3d 7452 383d
000000a0: 202b 583c 50b2 cabc c810 933d 4090 c03d
000000b0: 38c8 00bd d427 673d e834 cd3d ec91 9c3d
000000c0: f43d e1bd 9c91 293d 0c90 4a3d 7452 d7bd
000000d0: de5a c5bd 347f b0bd e806 c23d 481a a1bc
000000e0: c66b e73d 5054 f83d f205 ad3d 64b2 acbd
000000f0: 348a 71bd 5237 e33d 9aa4 ccbd e6ca a13d
00000100: d824 873d ccd0 833d a690 cbbd a6bd 893d
00000110: fcef d0bd 80e0 ff3a 7c20 9abd c091 7cbd
00000120: a294 9a3d 2820 88bc 98f0 5abd 8a8c 8ebd
00000130: a8c1 2d3d 38ed 503d 70f6 50bd 965e e23d
00000140: 6856 9cbd 0063 21bb 84e9 c23d 1e26 babd
00000150: d842 d7bd 0a36 e5bd 52f9 dfbd c003 5a3d
00000160: b800 adbc 8098 0bbc 4057 46bb c06c 0f3c
00000170: e2f9 ccbd 200c 913d 90ff 0a3d c09d 283b
00000180: 0023 b7ba 78bb babd d419 50bd 0817 bcbd
00000190: 541c 96bd 368c e13d aa7b 963d 620a d13d
000001a0: c05b 38bc 8638 d43d 8c94 7d3d bca4 fc3d
000001b0: 3650 8f3d d039 d6bd 64fd 193d 2026 0dbc
000001c0: 9881 b8bd 7c61 d83d 607b 893c 9055 d23c
000001d0: 7855 66bd a070 f0bc 949a 1bbd 50c5 5e3c
000001e0: d03f 76bd 00a1 cd3d 2cdb 37bd 8025 f53b
000001f0: 3adc a63d a0c2 c53b 904a 433c c478 f63d

policy_stddev_net.0.bias f4 [2]
0.104111046 0.0060412735
00000000: 2c38 d53d e0f5 c53b
