03/REINFORCE_gamma_0_7.pth (torch, 6288 bytes, 6 tensors)

shared_net.0.weight f4 [16, 4]
00000000: 14c9 c3be b230 86be c2ba ee3e 97cc 9e3e
00000010: 5046 c13d e9a5 bc3c 7281 973e ee32 6ebe
00000020: 8abd 96bd 4185 18bf 8453 ac3e 2cdf c9be
00000030: faf9 333d 0d5f 9abe b610 a6be 7ba1 bfbe
00000040: 1a6a 94be e976 76bd 32ef ca3e 61b0 c33e
00000050: 9f72 753d 3aba 123f a245 253d 8a26 153f
00000060: 74d0 32be 4f26 39be af8b e43e 6197 a1be
00000070: 8ac7 223d 7b8e d3bd 0ec6 1e3c 0dc3 fdbe
00000080: 6f05 46be 74b6 07bf 10b0 2fbd aae6 b23c
00000090: 9979 8c3e eb8c 9cbe eae3 24be 6c9b 233e
000000a0: edd3 383e 65c7 74be 089a 4fbe 9f76 c5be
000000b0: 4fc5 543b 16f4 133f 71a8 a1bd 49a1 bd3d
000000c0: 5e54 ba3e b533 c7be 7cca dfbe 7998 1bbf
000000d0: f2c3 f03e 24d2 963e 0edb 3f3d f9d9 17be
000000e0: bab0 013f fe0b a5be ba96 d3be 815d 743d
000000f0: 6aec 033e 008a c43e c475 14be bf55 ce3e
-0.38239348 -0.26209027 0.4662686 0.31015465 0.09437239 0.02302833 0.29590946 -0.23261616
-0.073603705 -0.5957833 0.33657467 -0.3942808 0.043939568 -0.30150643 -0.32434624 -0.37427887
-0.289872 -0.060171995 0.39635617 0.38220504 0.059923764 0.5731541 0.04034961 0.5826193
-0.17462331 -0.1808102 0.4463782 -0.31560805 0.039741077 -0.1032991 0.009690775 -0.49562874
-0.1933801 -0.53012776 -0.042892516 0.021838505 0.27436522 -0.30576262 -0.16102567 0.15977257
0.18049593 -0.23904188 -0.20273602 -0.38567063 0.0032466238 0.5779432 -0.07893456 0.09259278
0.36392492 -0.38906637 -0.4370917 -0.6077953 0.47024494 0.294572 0.046839766 -0.14829244
0.5066029 -0.32235712 -0.41325933 0.059659485 0.12883154 0.38386536 -0.14498049 0.40299794

shared_net.0.bias f4 [16]
00000000: bf9c 083e 138d 20ba 4129 ec3e 5660 903e
00000010: f0ec e33e 304a 4e3e ca22 fb3e 32b4 3c3e
00000020: e502 69be c468 aebd 26f1 993e 7300 603e
00000030: 0a96 8ebc 81e4 863e 94d9 633d d8d0 debe
0.13341044 -0.00061245373 0.46125224 0.28198498 0.44516706 0.20145488 0.4904998 0.18428114
-0.2275501 -0.08516076 0.30066794 0.21875171 -0.017405529 0.2634621 0.05562742 -0.4351871

shared_net.2.weight f4 [32, 16]
00000000: 9247 993b e057 773e dee0 563d d275 88bd
00000010: 4749 c9bd 5f60 57be 6089 833e d24b eabd
00000020: 4993 83be a6b7 a5bc e17b 833d 6c2a 8bbd
00000030: 48fe 783e 4c4a 283e 8891 8c3e f640 d2bd
00000040: c01e 15be 37f7 15be a7e4 f1bd bd50 b23d
00000050: 8675 99bd efbd 7abd c33b 58be 7856 1cbe
00000060: 82af 4fbe 43c5 1dbe d893 d43b 0576 8d3c
00000070: 26e9 083e 6e9c 04be b9a9 e8bd 7b64 84bd
00000080: 88ee 103e 85ca 23bd 90b5 50bc 14f9 6a3e
00000090: 8566 3dbe 19d3 bb3c e07c 863e 426f 563c
000000a0: e109 d53d 7fcf dfbd d7da 7c3e 8662 3c3e
000000b0: 1966 ae3e 42b8 7a3d fcad 1e3e 6e20 93bd
000000c0: 9732 d1bc 044e 58be 6356 f23c e327 72be
000000d0: f8bc 603d 9591 ae3e 8b97 3abe 91d5 7cbe
000000e0: a9b4 b8bd ca09 dd3c 64ed a3be 36a3 b2bd
000000f0: 88f3 82be 123b 80be 28be 3dbe b460 bfbc
00000100: fa6f e83c 1159 5f3e 43d2 0fbe 0cf7 3d3e
00000110: fb97 23be 3d06 3dbe 5322 883e 365b cfbd
00000120: 8704 72be 7fde 0a3d 73c9 653e 7ad5 9cbb
00000130: 3d3b 253e 78d0 53be e5b4 5bbe 036f 9e3d
00000140: 1046 98bd 4b1f be3d 0d5d 29be f8dc da3d
00000150: 802d 7e3e b9e1 2abe 2981 a4bd 637e 22be
00000160: 4d58 48be d5c4 083e be31 27bd 992b 523d
00000170: 6ec6 3ebe 0a65 133e a73e 58be a775 c5bd
00000180: 87e9 d8bd df5a 89bd 3077 6cbe d976 603e
00000190: 9a9b 11be 25b5 c73d 525b 123e ecc2 253c
000001a0: e11b 873e a059 06bd 289a 923d 7cd4 55be
000001b0: f925 3e3e 13ae 55be 775d 793d 8b26 48bd
000001c0: 9a27 c63d 877f 66be b5be 8b3d d431 273e
000001d0: f5ab 13be 115b 2f3d 5504 1e3e e665 8e3d
000001e0: 0ed5 533d fe1a 26be 49b3 10be 5f30 093d
000001f0: fc35 0b3e a71e 1b3d e47e 4ebd ee5c 5cbe
00000200: d979 9b3d 8388 12be b351 63bc f2c3 ed3d
00000210: 1fe3 81be fec1 4bbd 4811 f33d e835 27be
00000220: 0d5b 81bc 67ea 87bd 948e 133e 7919 173e
00000230: b222 86be 43a6 5f3d b526 3fbe 99f4 273e
00000240: db02 813c d034 52be 382b 41be 2ada 983d
00000250: 66c4 6b3e 4296 a73d 6e75 2b3e e233 33be
00000260: 9e3e a4bd 1077 0dbd 5c61 fdbc 746c 7d3e
00000270: 54ee 6abe 1252 793e f8f7 2e3e 0d04 ddbd
00000280: 0954 253d 9daa f8bd ca85 2bbd c0ee 86be
00000290: eb90 22be da1a e33d 8c52 69be 3ef3 123d
000002a0: 16c4 2c3e 2409 5dbe 8186 793c c37b 813e
000002b0: 3ac9 58be c8c3 923d a16a fbbd 4023 df3c
000002c0: fc45 7e3d 48d4 c3bc fbb7 11be fe36 253e
000002d0: cdc0 8dbc 3001 61bd 6be5 883e 6009 5f3e
000002e0: 5df8 203e d33c e23d 558a 883e 4a6a 113e
000002f0: cb48 af3d b9c4 90bd 662d 6abe b051 d5bc
00000300: 7170 893b c63f 53be 5f99 583e 28d4 763e
00000310: d59a 85be a5b5 7bbc 5c4f 0b3e 7a59 6b3e
00000320: f0bc f3bd 5020 0cbe 86c2 24be ae1c 113d
00000330: 1551 493d 6f7b df3c 50bb 35be b81a 433d
00000340: c21d e03d bafd 2dbe b65f e4bd a707 993d
00000350: ad25 a23d f085 7d3d 6102 93be ce83 94be
00000360: 1846 3a3d f2ba e33d a6ba 13bd 5aa3 9f3d
00000370: 3daa 8cbe de96 3f3e e76f d73d d2d0 973e
00000380: 1183 eebc b20b 31be 28a6 803e d49e 8e3d
00000390: d756 49bd 8619 12be a135 f83d 7893 56bc
000003a0: 108b 71be c122 42be 20b0 3d3d dbb7 d4ba
000003b0: f1e9 1fbe 2641 98bb 951e 193e c1d5 86be
000003c0: 4b8a 08bc 631b b73d dcdc 04be 7984 86bb
000003d0: 282a 0e3e 4078 9f3d a412 bc3d 38f1 51be
000003e0: 90c2 0bbd 5825 783e 3c1c 0dbe f80f 6b3e
000003f0: 3f79 d33b fa44 18be 5ad5 50be 0b1f 903d
0.0046777213 0.24154615 0.052460544 -0.066630974 -0.0982843 -0.21032856 0.25690746 -0.11440243
-0.25698307 -0.020229172 0.064201124 -0.06795201 0.2431575 0.16434592 0.27454782 -0.102662966
-0.14562511 -0.14645086 -0.1181119 0.08706806 -0.07493119 -0.06121629 -0.21116547 -0.1526736
-0.20281795 -0.1540728 0.006487351 0.01726819 0.13370189 -0.12950298 -0.11360497 -0.06464478
0.14153492 -0.03998806 -0.0127386 0.22946578 -0.1849614 0.022927808 0.26267147 0.013088049
0.10402275 -0.109282486 0.24692856 0.18396959 0.3406227 0.06121088 0.15496057 -0.0718392
-0.025536818 -0.2112351 0.029582208 -0.23648028 0.054867715 0.34095445 -0.18221872 -0.24690844
-0.09018833 0.026982207 -0.32017052 -0.08722536 -0.25576425 -0.25045067 -0.1852957 -0.023361541
0.028373707 0.2181132 -0.14045052 0.18551272 -0.15975945 -0.18459411 0.26588687 -0.10124819
-0.2363454 0.033903595 0.22440128 -0.0047861906 0.16135879 -0.20684993 -0.21455725 0.077360176
-0.07435238 0.092833124 -0.16539402 0.10686678 0.24822044 -0.16687669 -0.08032448 -0.15868525
-0.19564934 0.13356335 -0.040818922 0.05131111 -0.18630382 0.14394012 -0.2111765 -0.09641581
-0.10591417 -0.067067854 -0.23092341 0.21920337 -0.14219514 0.097513475 0.14292648 0.010117274
0.26388457 -0.032800317 0.07158309 -0.20881838 0.18569173 -0.20867185 0.06088015 -0.048864882
0.09675522 -0.22509585 0.06823484 0.16327602 -0.14421065 0.042811457 0.1543134 0.06953029
0.051716857 -0.16221234 -0.14130892 0.033493396 0.13594812 0.03787103 -0.05041398 -0.21519825
0.075916 -0.14309888 -0.013874459 0.11609639 -0.25368592 -0.049745552 0.118685305 -0.16329157
-0.015790487 -0.066365056 0.14409858 0.14755811 -0.26198345 0.05460192 -0.1866711 0.164019
0.015748432 -0.20527959 -0.18864143 0.074634865 0.23024139 0.08182956 0.16744015 -0.1750026
-0.08019756 -0.034537375 -0.030930214 0.24748403 -0.22942477 0.24347714 0.1708678 -0.10791788
0.040363345 -0.12141917 -0.041875638 -0.26354027 -0.15875594 0.11089106 -0.22785395 0.035876505
0.16871676 -0.21585518 0.015229822 0.25289735 -0.21170512 0.071662486 -0.12276197 0.027238488
0.06207846 -0.023904935 -0.14230339 0.16134259 -0.017303849 -0.054932773 0.26737532 0.2178092
0.15719743 0.110467575 0.2666804 0.14200702 0.08558806 -0.07068772 -0.2286888 -0.026039928
0.0041943123 -0.20629796 0.21152256 0.24104369 -0.2609469 -0.015363132 0.13604492 0.22983351
-0.11901271 -0.13684201 -0.1608983 0.03542774 0.04914959 0.027280537 -0.17747235 0.047632903
0.10943176 -0.1699132 -0.11151068 0.07472163 0.07917342 0.06189531 -0.28712752 -0.2900681
0.045477003 0.11119641 -0.036066674 0.07794829 -0.27473632 0.18709895 0.105193906 0.29651505
-0.029115232 -0.17289618 0.25126767 0.06963888 -0.049155083 -0.14267549 0.12119604 -0.013096683
-0.23588204 -0.1895857 0.046310544 -0.001622911 -0.15616585 -0.004646438 0.14953072 -0.26334956
-0.008333753 0.089407705 -0.12974876 -0.0041051474 0.13883269 0.07786608 0.09183243 -0.20502174
-0.034121096 0.24232996 -0.13780302 0.2295531 0.0064536626 -0.14870062 -0.20393887 0.07037171

shared_net.2.bias f4 [32]
00000000: 97ad c2bd 19e0 84be b307 00be e83b e63d
00000010: e835 973d 48d3 dabd 5718 1abe eef6 0c3e
00000020: 3e02 2d3e 24cb dcbd 9bce db3c 8a76 493e
00000030: 24de 00be 0bcc 193d 01da d9bd b4e2 63be
00000040: 54d7 30be dec2 de3d 0a75 5bbe 0854 95be
00000050: fc20 803e a5c4 1abd 1fd9 8dbe eed1 eabd
00000060: 418f 453d fe10 33be ef9a 403e 9472 48be
00000070: e722 533e edf2 81bc 31ab 94bd bbe2 35bd
-0.09505766 -0.25952223 -0.12502937 0.11241895 0.07383329 -0.1068483 -0.15048347 0.13766071
0.16895387 -0.107809335 0.026831916 0.19674125 -0.1258474 0.037548106 -0.10637284 -0.22254449
-0.17269641 0.10877012 -0.21431366 -0.29165673 0.25025165 -0.03778519 -0.27704713 -0.11465822
0.04823232 -0.17486951 0.18809102 -0.19574958 0.20618783 -0.015862906 -0.07259215 -0.04440568

policy_mean_net.0.weight f4 [1, 32]
00000000: da00 87be ff2a eb3c c17f 25be b7fb 113e
00000010: b655 2ebe f405 3a3d e8a9 a7bd 932c a7bd
00000020: 8be0 ad3d 7668 273e a0cc 4f3e 11a7 33bd
00000030: 017a 8abd faff b63d f34d 99bd ca06 2d3e
00000040: de5b 683e efec 0b3e 9373 9d3e 68e0 493b
00000050: c724 68be 8226 0e3e 8b22 3a3e 3cbd 35be
00000060: 42c4 02bd 1297 e23d e7f9 30be e7c5 bdbd
00000070: b1e5 513e 2296 1ebe be06 68bc 6f78 4abe
-0.26367837 0.028707026 -0.16162015 0.14256178 -0.17024884 0.045415834 -0.08186704 -0.08162799
0.08490094 0.16348442 0.20292902 -0.0438605 -0.06761552 0.089355424 -0.07485571 0.16897121
0.22691295 0.13664602 0.3075224 0.0030803923 -0.2267028 0.13881877 0.1817724 -0.17747968
-0.031925447 0.110639706 -0.1728283 -0.092662625 0.20497777 -0.15486959 -0.014161764 -0.19772504

policy_stddev_net.0.weight f4 [1, 32]
00000000: 7958 acbd dbd2 333e 922f 90bc 0a9a 083c
00000010: e122 9abd f68c 09be acca 013e 2b23 d63d
00000020: 3336 ec3d ce66 f7bd 28cd c43d a0e3 1abe
00000030: d520 d33d cf54 333e 42f2 54be 2e01 e23d
00000040: 33ec 973d e02c a8bd 58c2 a93d a3ac 163e
00000050: 961c 29be 3e46 07be d6ec 4d3e 91ef 3fbc
00000060: 478c 4e3d 2e2a 45bd 666e 673c 84b2 ac3c
00000070: 0970 39bd e696 903b 1805 dcbd 2dd5 9c3d
-0.08415312 0.17560904 -0.017600808 0.008337507 -0.07526184 -0.13432679 0.1267497 0.104559265
0.11533775 -0.12080155 0.09609443 -0.15125895 0.103089966 0.1751282 -0.20795539 0.11035381
0.07418098 -0.08211684 0.08289021 0.14714293 -0.16514811 -0.13210389 0.20109877 -0.011714832
0.050426748 -0.04813593 0.014125442 0.021081217 -0.04527286 0.0044125197 -0.10743159 0.076578476
