03/REINFORCE_gamma_0_9.pth (torch, 6288 bytes, 6 tensors)

shared_net.0.weight f4 [16, 4]
0.22762685 -0.056375753 0.18899299 -0.3778022 -0.17000978 -0.106426805 0.4082606 -0.32653877
0.16619532 -0.06478297 -0.442592 -0.4430418 -0.09911445 0.18600361 0.24896081 -0.37268522
-0.3512866 -0.7795073 0.29750934 -0.3337689 0.3643403 0.13700733 0.034836244 -0.5289089
-0.019357797 -0.1991154 0.10852379 -0.17525661 0.093799025 -0.27274176 -0.2299274 -0.49945134
0.10510686 0.21328652 0.35869858 0.5912762 -0.06712827 -0.43447906 0.36103627 -0.04157216
-0.33210298 -0.014057578 0.09273565 0.5880058 0.40899044 0.004885783 -0.19781159 -0.6068824
0.1355419 -0.5199542 -0.20403765 -0.38735127 -0.33930424 0.06035883 -0.113201916 -0.3587995
0.35782441 0.65015703 -0.36715457 0.4103617 0.052403737 -0.27362838 0.4991142 0.36136213
00000000: 0317 693e 43ea 66bd 6187 413e 4a6f c1be
00000010: 0b17 2ebe 4cf6 d9bd 8907 d13e 1730 a7be
00000020: 1b2f 2a3e efac 84bd 6b9b e2be 60d6 e2be
00000030: 84fc cabd bb77 3e3e 95ef 7e3e 99d0 bebe
00000040: d6db b3be ca8d 47bf 2553 983e c2e3 aabe
00000050: d08a ba3e a64b 0c3e 73b0 0e3d 9366 07bf
00000060: 3e94 9ebc e8e4 4bbe b941 de3d 7876 33be
00000070: b419 c03d cfa4 8bbe 1772 6bbe 16b8 ffbe
00000080: 4442 d73d c867 5a3e 57a7 b73e e15d 173f
00000090: 8c7a 89bd 0a74 debe bfd9 b83e 9247 2abd
000000a0: 6709 aabe c151 66bc 30ec bd3d 8c87 163f
000000b0: 3267 d13e eb18 a03b 1f8f 4abe a55c 1bbf
000000c0: 7fcb 0a3e b81b 05bf 3fef 50be e852 c6be
000000d0: 49b9 adbe d23a 773d 68d6 e7bd 91b4 b7be
000000e0: c334 b73e b170 263f affb bbbe ee1a d23e
000000f0: 4da5 563d 0519 8cbe e58b ff3e 7504 b93e

shared_net.0.bias f4 [16]
0.10450382 0.37945378 -0.020633582 -0.22227506 -0.20090279 -0.15522185 -0.35737056 0.009615649
0.35469258 0.024985904 0.3805967 0.42550582 -0.119856305 0.37292024 0.14146775 -0.14577101
00000000: 1906 d63d c447 c23e c207 a9bc 139c 63be
00000010: 76b9 4dbe 7af2 1ebe 46f9 b6be f48a 1d3c
00000020: 449a b53e 3daf cc3c 92dd c23e e6db d93e
00000030: 3977 f5bd 67ef be3e ecdc 103e ff44 15be

shared_net.2.weight f4 [32, 16]
0.16460867 -0.24647844 -0.38554463 0.06254253 -0.21535435 -0.21860348 -0.2479626 0.051781263
0.2615025 0.1655677 0.017487144 -0.19416352 -0.13328071 -0.061191484 -0.15210636 -0.00029451822
-0.17588495 -0.13458201 0.021718381 -0.18909734 -0.33012226 0.17684889 -0.16094545 -0.3648161
-0.076037444 0.24273504 0.3018977 -0.043484706 -0.3346093 0.025247429 0.15183303 -0.07740308
0.070109725 -0.08791838 -0.2438397 -0.16614078 0.103392564 -0.2502714 0.05943874 -0.20903327
0.056884892 0.011240175 0.24620403 -0.21004705 -0.28061792 -0.19520076 0.2775636 0.11583055
-0.2900855 -0.2605489 -0.003293909 -0.07166062 -0.23707719 0.08499761 -0.06823594 -0.07234726
-0.09883057 -0.1469348 0.28783548 -0.0754124 -0.06422657 0.0030538412 -0.09726483 -0.060242813
-0.23080136 -0.0016700273 0.044192262 0.18675159 -0.065214604 -0.12169306 -0.037567705 -0.17909686
0.0043536583 -0.17971261 -0.038834374 -0.14578457 0.08597007 -0.20061149 0.11973256 0.16275474
-0.2877056 -0.19336969 -0.07548714 0.14390615 0.19219673 0.14635617 -0.1271621 -0.0109624015
-0.20654345 -0.022938011 -0.24209489 0.1751365 0.25638452 0.12829682 0.03524418 -0.020383447
-0.19766526 0.06876126 0.10462322 0.20246612 -0.09022726 0.034149323 0.009845708 -0.010419548
-0.2648496 -0.14800608 -0.22798608 0.29335237 0.09940568 0.20750242 -0.29636365 -0.36844125
0.13046674 -0.22619133 -0.41012776 0.04396263 -0.2107172 -0.056803383 0.0024873551 -0.25468883
0.21772985 0.15916964 -0.04245124 0.028882323 -0.021453483 0.13387668 0.2054219 0.020569656
-0.061970145 -0.17117329 0.32068017 0.14680125 -0.14593525 -0.026962826 0.09701001 -0.077483214
-0.0967418 0.05139727 0.026720816 0.17488453 0.035008118 0.28564954 -0.32513085 -0.11712632
0.22274105 -0.040094655 0.28066856 0.27665138 -0.010365592 0.1121595 -0.18231608 0.15925388
-0.16040605 -0.12931705 -0.27948645 0.035188764 0.04159864 -0.1138639 -0.14849558 -0.21225758
-0.046710294 -0.17425624 0.056317378 0.1063029 0.14157237 -0.051043864 0.047489755 -0.1613207
-0.14579718 0.15986717 0.05632751 -0.20410098 -0.06570747 0.15206517 -0.062340375 0.026552944
0.10227373 -0.05887521 0.036297403 0.20413883 0.051351253 0.064229764 0.14119782 0.06301659
-0.00072836183 0.02573962 -0.1341929 0.015797012 0.21374673 -0.0066208905 -0.18415762 0.09805056
-0.061850097 0.19512892 0.06329059 0.18549189 0.05907915 0.015425489 -0.037339088 -0.041613504
0.23661941 -0.19395865 0.15453099 0.07561531 -0.2259724 0.13706535 0.042660695 0.18233919
-0.015182447 0.02024882 -0.079397984 0.062869616 0.12191222 0.0039648633 0.28597787 0.23402065
-0.12962945 -0.1891744 -0.09596592 -0.12553452 -0.18353292 -0.08945435 0.0057436344 0.14643684
-0.2888475 0.1775578 -0.2631274 0.23373628 -0.23764804 0.051690344 0.22352526 -0.27880323
0.17560421 -0.037400026 0.039504305 0.059401333 -0.079297915 -0.123007305 0.23555635 -0.0957783
0.15942691 0.20000526 0.049400415 -0.2639396 0.05158504 -0.2388272 0.15922926 0.23332596
-0.03897761 -0.080303855 -0.20032822 -0.03067695 0.21385223 -0.20886101 -0.021752492 0.07715899
00000000: 2d8f 283e d864 7cbe 1b66 c5be 4c16 803d
00000010: da85 5cbe 97d9 5fbe e8e9 7dbe 9718 543d
00000020: a8e3 853e 948a 293e 3341 8f3c cdd2 46be
00000030: bd7a 08be eca3 7abd c5c1 1bbe 9169 9ab9
00000040: 2f1b 34be decf 09be bfea b13c bca2 41be
00000050: c905 a9be e017 353e e2ce 24be 2dc9 babe
00000060: 85b9 9bbd 898f 783e 5692 9a3e 051d 32bd
00000070: e951 abbe b2d3 ce3c 1e7a 1b3e 8285 9ebd
00000080: b095 8f3d 8d0e b4bd 1db1 79be cf20 2abe
00000090: 7bbf d33d 9323 80be 0976 733d d10c 56be
000000a0: 2200 693d b628 383c e91c 7c3e 9316 57be
000000b0: 27ad 8fbe b5e2 47be d11c 8e3e 9138 ed3d
000000c0: 1686 94be aa66 85be 9fde 57bb cec2 92bd
000000d0: 5dc4 72be 3a13 ae3d 49bf 8bbd cd2a 94bd
000000e0: af67 cabd 1476 16be 2c5f 933e d171 9abd
000000f0: 3889 83bd f422 483b c832 c7bd 2bc1 76bd
00000100: 3157 6cbe d1e4 daba f202 353d cf3b 3f3e
00000110: 3c8f 85bd 363a f9bd 98e0 19bd 2b65 37be
00000120: 22a9 8e3b 9506 38be cb10 1fbd 8d48 15be
00000130: 1311 b03d 196d 4dbe 5836 f53d 2ea9 263e
00000140: 264e 93be b402 46be 0099 9abd 225c 133e
00000150: 38cf 443e 64de 153e c836 02be a59b 33bc
00000160: 2080 53be 7fe8 bbbc b9e7 77be fc56 333e
00000170: d544 833e 3e60 033e 345c 103d 30fb a6bc
00000180: c368 4abe b4d2 8c3d b344 d63d 4753 4f3e
00000190: 12c9 b8bd 29e0 0b3d e44f 213c c0b6 2abc
000001a0: 5e9a 87be e88e 17be 2f75 69be 4832 963e
000001b0: 3595 cb3d 847b 543e fabc 97be 55a4 bcbe
000001c0: 1399 053e b39e 67be 44fc d1be 2912 343d
000001d0: 40c6 57be aaaa 68bd e502 233b 9366 82be
000001e0: 93f4 5e3e 5efd 223e 5ae1 2dbd 9f9a ec3c
000001f0: 37bf afbc f816 093e 1e5a 523e b281 a83c
00000200: 68d4 7dbd 0d48 2fbe 3130 a43e 1153 163e
00000210: 0d70 15be 25e1 dcbc 2fad c63d 85af 9ebd
00000220: 9120 c6bd f285 523d 9de5 da3c ee14 333e
00000230: ac64 0f3d a840 923e 8d77 a6be eddf efbd
00000240: 3b16 643e 4b3a 24bd cab3 8f3e 40a5 8d3e
00000250: 72d4 29bc e1b3 e53d 11b1 3abe 7313 233e
00000260: 7c41 24be b06b 04be d918 8fbe 1822 103d
00000270: 5663 2a3d 7a31 e9bd 3a0f 18be 0d5a 59be
00000280: 4b53 3fbd 3a70 32be 0dad 663d 56b5 d93d
00000290: 59f8 103e 5f13 51bd 9e84 423d 4131 25be
000002a0: db4b 15be 38b4 233e adb7 663d d9ff 50be
000002b0: a391 86bd f9b6 1b3e 9f58 7fbd 8f85 d93c
000002c0: e474 d13d 2227 71bd 96ac 143d c509 513e
000002d0: b155 523d e58a 833d 2996 103e d80e 813d
000002e0: 89ef 3eba e5db d23c dd69 09be bc68 813c
000002f0: 6ce0 5a3e 0ef4 d8bb d193 3cbe bbce c83d
00000300: 8756 7dbd e0cf 473e 7f9e 813d 96f1 3d3e
00000310: fbfc 713d 31bb 7c3c dff0 18bd ec72 2abd
00000320: 5c4c 723e 199d 46be 5f3d 1e3e 33dc 9a3d
00000330: 4f65 67be dc5a 0c3e fbbc 2e3d 20b7 3a3e
00000340: ccbf 78bc dae0 a53c 699b a2bd c9c1 803d
00000350: 1dad f93d afeb 813b b16b 923e 1ca3 6f3e
00000360: 95bd 04be efb6 41be c889 c4bd 1f8c 00be
00000370: 0ef0 3bbe d833 b7bd 1935 bc3b 8af3 153e
00000380: d2e3 93be b6d1 353e a2b8 86be 9058 6f3e
00000390: 025a 73be 41b9 533d cee3 643e 4cbf 8ebe
000003a0: 97d1 333e c530 19bd 44cf 213d d04e 733d
000003b0: f266 a2bd 41eb fbbd af35 713e 6a27 c4bd
000003c0: cf40 233e 2ece 4c3e 1758 4a3d 1723 87be
000003d0: d64a 533d 1e8f 74be ff0c 233e 00ed 6e3e
000003e0: fda6 1fbd 5976 a4bd d722 4dbe 3a4e fbbc
000003f0: 14fc 5a3e a9df 55be 4832 b2bc 8805 9e3d

shared_net.2.bias f4 [32]
-0.01647909 -0.19864182 -0.20188148 0.096237086 0.0925693 0.19620493 -0.15524966 0.16107865
-0.1796268 0.09057018 0.005639451 0.19862509 -0.17385133 -0.2015532 -0.08326474 0.018652262
-0.047765017 0.20259275 -0.14857219 -0.21198164 -0.14860894 -0.1475057 0.023810208 -0.16516586
0.08314634 -0.16274737 0.18750247 0.12606376 -0.1510351 0.13396426 0.13129121 -0.054351244
00000000: 28ff 86bc c368 4bbe 05ba 4ebe f317 c53d
00000010: f994 bd3d f2e9 483e c4f9 1ebe cdf1 243e
00000020: 16f0 37be dc7c b93d 25cb b83b 6064 4b3e
00000030: 1506 32be f663 4ebe b486 aabd a1cc 983c
00000040: 40a5 43bd 7974 4f3e 4f23 18be b711 59be
00000050: f12c 18be bc0b 17be a00d c33c 3d21 29be
00000060: a148 aa3d 3fa7 26be a600 403e dc16 013e
00000070: f2a8 1abe ed2d 093e 3471 063e 699f 5ebd

policy_mean_net.0.weight f4 [1, 32]
0.27012622 0.1296142 0.178431 0.15633155 0.08437335 -0.053441763 -0.16997068 0.21603411
-0.15368897 -0.16190895 0.092098 -0.18322547 0.11325454 0.06969977 0.26125428 -0.05394285
0.21229827 -0.11361379 -0.17732503 0.29142052 -0.10103539 0.14289227 0.113228865 0.17500842
-0.07806923 0.1800119 -0.18813394 -0.009452034 0.24986066 -0.19968052 0.17003103 -0.10494952
00000000: fc4d 8a3e 96b9 043e 9eb6 363e 6115 203e
00000010: efcb ac3d c0e5 5abd cb0c 2ebe 0c38 5d3e
00000020: a460 1dbe 76cb 25be e09d bc3d 759f 3bbe
00000030: fff1 e73d c1be 8e3d 1fc3 853e 2ef3 5cbd
00000040: b864 593e 59ae e8bd b194 35be 1235 953e
00000050: a4eb cebd 5a52 123e 89e4 e73d 6835 333e
00000060: c3e2 9fbd 0a55 383e 2fa6 40be b4dc 1abc
00000070: 79db 7f3e 0d79 4cbe 9d1c 2e3e c6ef d6bd

policy_stddev_net.0.weight f4 [1, 32]
-0.13426027 -0.10291689 -0.016448995 -0.0010209035 -0.055870026 0.13276133 0.17190929 -0.025412498
0.14329533 0.18171561 0.19816576 0.089398295 0.048885148 0.20796038 0.011408398 -0.036837433
-0.20570412 -0.2000025 0.17031886 -0.103831924 -0.04130543 0.06982035 0.012651025 -0.0006942363
-0.02661284 -0.100975394 0.14296822 0.084864855 0.11026682 -0.011245483 0.020764 0.06966441
00000000: 867b 09be 17c6 d2bd 0bc0 86bc d6cf 85ba
00000010: f8d7 64bd 96f2 073e fd08 303e df2d d0bc
00000020: 03bc 123e a813 3a3e f7eb 4a3e 7416 b73d
00000030: cb3b 483d 91f3 543e 4aea 3a3c d9e2 16bd
00000040: 1aa4 52be 75cd 4cbe 1168 2e3e d5a5 d4bd
00000050: e22f 29bd f9fd 8e3d 3f46 4f3c 69fd 35ba
00000060: 2c03 dabc 30cc cebd 4366 123e a0cd ad3d
00000070: 92d3 e13d f93e 38bc 4419 aa3c 37ac 8e3d
