03/REINFORCE_gamma_0_5.pth (torch, 6288 bytes, 6 tensors)

shared_net.0.weight f4 [16, 4]
0	0xbe06da03	-0.13169102
1	0xbf05b235	-0.5222505
2	0x3ea741ec	0.32667482
3	0xbebfdec9	-0.3747466
4	0xbd808eec	-0.0627726
5	0x3eabc521	0.33548835
6	0xbe4bcde0	-0.19902754
7	0x3e4d5d74	0.20055181
8	0xbe878266	-0.26466674
9	0x3d4a23f8	0.04935071
10	0xbefdd757	-0.49578354
11	0x3ee49b82	0.44649893
12	0x3e41650a	0.188862
13	0xbea209a5	-0.31647983
14	0xbf017ecf	-0.5058412
15	0x3e97c5a2	0.2964297
16	0xbe7b3630	-0.2453239
17	0x3f0d5db9	0.55221134
18	0xbc14eae1	-0.009089203
19	0x3e7fe1fc	0.2498855
20	0xbe8b8fdd	-0.27258196
21	0x3e9015c1	0.28141597
22	0x3cbdceb9	0.023169862
23	0xbe23e7ba	-0.16006365
24	0xbeca3c04	-0.39498913
25	0xbe6a7d1f	-0.22899292
26	0x3e71325b	0.23554365
27	0x3f003cd0	0.5009279
28	0x3eb36ac6	0.350424
29	0xbebe83fd	-0.37210074
30	0x3ec1ce6e	0.37852806
31	0xbec2ab8c	-0.38021505
32	0x3f0ae2be	0.5425223
33	0x3e58a7a6	0.21157703
34	0x3e062410	0.13099694
35	0xbefdce90	-0.49571657
36	0xbee5c91b	-0.44879994
37	0xbc4053cf	-0.0117387315
38	0x3ed8a9f6	0.4231717
39	0xbe3fcf42	-0.18731406
40	0xbee2db2d	-0.44307843
41	0x3da4b58b	0.08042439
42	0x3ecc87b9	0.39947298
43	0x3eacb6e1	0.33733276
44	0xbe8f3400	-0.2796936
45	0xbede56d1	-0.4342561
46	0xbe05ed38	-0.13078773
47	0xbf0d035e	-0.5508326
48	0xbe6147c0	-0.22000027
49	0x3e3cfdcb	0.1845619
50	0x3dfb46d0	0.12269366
51	0x3df0028d	0.117192365
52	0x3ea1ab5e	0.31576055
53	0x3ceabaf8	0.028653607
54	0xbeb7ebd2	-0.35922104
55	0x3bcb871b	0.006211174
56	0x3ee11a91	0.4396558
57	0xbe9d802d	-0.30761853
58	0xbeb76c4d	-0.35824814
59	0xbe813830	-0.2523818
60	0x3eb50f8a	0.35363418
61	0xbee81e92	-0.45335823
62	0x3e4bd61c	0.19905895
63	0x3e600b6d	0.21879359

shared_net.0.bias f4 [16]
0	0xbee9fc21	-0.45700172
1	0xbe3f95a4	-0.18709427
2	0x3ebe91d0	0.3722062
3	0x3e044bbc	0.12919515
4	0xbe177378	-0.14790142
5	0xbec5209a	-0.38501436
6	0x3eb4545e	0.35220617
7	0x3d57d1a6	0.05269017
8	0x3eb9f47f	0.36319348
9	0xbe4d39af	-0.20041536
10	0xbe627338	-0.22114265
11	0x3dd86244	0.10565618
12	0x3ef1bb58	0.47213244
13	0xbd5fc7c7	-0.054633882
14	0x3c3d4e4d	0.011554313
15	0xbe592f52	-0.21209458

shared_net.2.weight f4 [32, 16]
0	0x3e2355f0	0.15950751
1	0x3e2042d2	0.1565049
2	0xbe8c8eee	-0.27452797
3	0xbe94f2d8	-0.29091525
4	0xbd09d41b	-0.033649545
5	0x3e5020cf	0.20325015
6	0xbc183f4c	-0.009292435
7	0xbdda3855	-0.10655276
8	0xbdd5d289	-0.10440547
9	0xbd8502a2	-0.06494643
10	0x3e3b0f8b	0.18267648
11	0x3e439b7d	0.19102283
12	0xbe3d92ac	-0.18512982
13	0x3c991630	0.018687338
14	0x3deb5f05	0.11492733
15	0xbe2fc9c0	-0.17166805
16	0xbe6e1888	-0.23251545
17	0x3c25dcf3	0.010123479
18	0xbe332676	-0.1749514
19	0xbe4a4398	-0.19752347
20	0xbb85d170	-0.004083805
21	0xbd5bd5e4	-0.05367078
22	0xbe5368b9	-0.20645417
23	0x3c9305fa	0.017947186
24	0x3da5c51b	0.080942355
25	0x3dba8563	0.09107473
26	0x3e857560	0.26066113
27	0xbc41bbd4	-0.011824567
28	0xbd201a65	-0.03908767
29	0xbd51a62e	-0.051183872
30	0x3e2c3767	0.1681801
31	0xbe4ccb0e	-0.19999334
32	0x3c87b9cc	0.016568087
33	0x3e8eee14	0.27916014
34	0x3daea83c	0.08528182
35	0xbdc48a73	-0.095967196
36	0xbd72d3c2	-0.05928398
37	0xbce63250	-0.028100163
38	0x3e345351	0.17609908
39	0xbbf455bf	-0.007456511
40	0xbe4f06d0	-0.20217443
41	0x3e160a44	0.14652354
42	0x3e3fe1ae	0.18738434
43	0xbc284bd3	-0.010271984
44	0xbd3c3ee6	-0.045958422
45	0x3e3ba3f0	0.18324256
46	0xbcb023ea	-0.0215015
47	0xbe651aea	-0.22373548
48	0xbe6e09ad	-0.23245879
49	0x3e80ae21	0.2513285
50	0x3e753e22	0.23949483
51	0x3e92c43a	0.28665334
52	0x3e2b3c1b	0.16722147
53	0x3df2d48c	0.11856946
54	0xbdf13c4a	-0.11779077
55	0x3cf127dd	0.029437954
56	0x3ca6e063	0.020370668
57	0xbd2c66ec	-0.04209034
58	0x3e4c8e6f	0.19976209
59	0x3d560f38	0.052260607
60	0xbdec05f4	-0.11524573
61	0xbe5c222e	-0.21497414
62	0xbe662cb9	-0.22477998
63	0x3c21a696	0.009866377
64	0xbd62c4ef	-0.05536359
65	0x3dc58b1f	0.09645676
66	0x3e6ccbeb	0.23124664
67	0x3e74e411	0.23915125
68	0x3d863bad	0.06554351
69	0xbdfbc7c1	-0.122939594
70	0xbdfa9f62	-0.12237431
71	0xbe830ac9	-0.25594166
72	0x3d5e165d	0.054220546
73	0xbe2752ff	-0.16340254
74	0xbce6ba0b	-0.028164884
75	0xbe9735a3	-0.2953311
76	0x3e3cb05a	0.18426648
77	0xbc65ee0e	-0.014033807
78	0xbe2ff4eb	-0.17183273
79	0x3e5d9526	0.21638927
80	0x3bb6d6b5	0.0055797943
81	0x3cbb7e30	0.02288732
82	0x3d41a9f9	0.04728124
83	0xbd27e71b	-0.040991884
84	0x3e86137c	0.2618674
85	0x3d45653e	0.048192255
86	0x3e3b252f	0.18275903
87	0xbe2c4d76	-0.16826424
88	0x3e3579d2	0.17722252
89	0x3e391410	0.1807406
90	0x3d8185ba	0.063243344
91	0xbc950725	-0.018191883
92	0x3e40d0cd	0.18829651
93	0x3e7140ae	0.2355983
94	0xbdcb31b2	-0.09921588
95	0x3e612898	0.21988142
96	0x3e54b1a0	0.20770884
97	0xbe1f20f8	-0.1553992
98	0xbe3d2f7b	-0.18475144
99	0x3e2c34c9	0.16817011
100	0xbe81aa4d	-0.25325242
101	0xbc83519b	-0.016030123
102	0xbd7423f5	-0.059604604
103	0xbdd2d4b1	-0.10294474
104	0xbe08dd2f	-0.13365625
105	0x3e235622	0.15950826
106	0xbe750050	-0.239259
107	0x3c1d0914	0.009584684
108	0xbe2f12eb	-0.1709706
109	0xbdafca0b	-0.085834585
110	0xbdc87a90	-0.09789002
111	0xbcdadf34	-0.02671776
112	0xbcfd885e	-0.030948814
113	0x3e3005d6	0.17189726
114	0x3e83235b	0.25612912
115	0x3e154c0e	0.14579794
116	0xbd8fd6e4	-0.07023409
117	0xbd726e92	-0.05918748
118	0x3e8fa5ef	0.28056285
119	0xbd513ae6	-0.05108156
120	0xbe253523	-0.16133551
121	0x3e05b8b8	0.13058746
122	0xbcf474e8	-0.029840901
123	0x3e25fe5e	0.16210315
124	0xbe47d318	-0.1951412
125	0x3e10c821	0.14138843
126	0xbe4b6c9b	-0.19865648
127	0xbe6fe890	-0.2342856
128	0x3e031d4e	0.12804148
129	0xbdbbabb9	-0.09163613
130	0x3d988f00	0.0744915
131	0xbd976273	-0.073918246
132	0xbe7d17dd	-0.24716134
133	0xbba016e6	-0.004885542
134	0xbd35041e	-0.04419338
135	0x3e58f9ba	0.21189013
136	0x3c42be4b	0.01188619
137	0x3e77321a	0.24140206
138	0x3e4bfe4a	0.19921222
139	0x3e10f957	0.14157616
140	0xbc1aeb72	-0.009455549
141	0xbe74f3fa	-0.23921195
142	0x3cda0614	0.026614226
143	0x3dd751d6	0.10513656
144	0xbe08590b	-0.13315217
145	0x3d877bed	0.06615434
146	0x3e631353	0.2217534
147	0xbca56d54	-0.020193733
148	0xbe19b2a5	-0.15009554
149	0xbe3d023f	-0.18457888
150	0x3e923f08	0.28563714
151	0xbd9e9b24	-0.077444345
152	0x3d9faa0e	0.07796107
153	0xbd46c217	-0.048524942
154	0xbddae7cb	-0.10688742
155	0xbe8c4ea5	-0.2740375
156	0xbd5f5f6e	-0.05453437
157	0x3e61dd17	0.22056995
158	0xbe293c1e	-0.16526839
159	0x3e42f72d	0.19039603
160	0xbe2082c5	-0.15674885
161	0xbde945bd	-0.11390255
162	0xbe76994c	-0.24081916
163	0xbe177f05	-0.14794548
164	0x3e29383f	0.16525362
165	0x3e070586	0.13185701
166	0xbe30cccf	-0.17265628
167	0x3ea474ac	0.32120264
168	0x3e8f0470	0.27933073
169	0x3e658313	0.22413282
170	0x3e02d119	0.12775077
171	0x3e3c1912	0.18368939
172	0xbd861732	-0.06547393
173	0x3df2697a	0.11836524
174	0x3dbffe64	0.09374693
175	0x3db125be	0.08649777
176	0x3db818e8	0.089891255
177	0xbdff140f	-0.12454998
178	0xbe10ffcc	-0.14160079
179	0x3e2e4e0e	0.17021963
180	0x3d30df00	0.04318142
181	0x3d27264e	0.040808015
182	0xbe1bf919	-0.15231742
183	0x3d3cbfe9	0.046081457
184	0x3de49251	0.1116072
185	0x3cb8972e	0.022533026
186	0xbe2cbfb9	-0.16870011
187	0xbe68d67b	-0.22738068
188	0xbba4229e	-0.0050090095
189	0x3e299baf	0.16563295
190	0x3de3661d	0.11103461
191	0x3c6063e5	0.013695692
192	0x3d9581ad	0.07300124
193	0x3da3326d	0.07968602
194	0xbd542068	-0.051788718
195	0xbd0eed21	-0.034894112
196	0x3e2bac4e	0.16764948
197	0xbe2f4d4d	-0.17119332
198	0x3e8cbdb1	0.27488473
199	0x3d94186b	0.0723122
200	0x3d800ecf	0.062528245
201	0xbc4f75d5	-0.012662371
202	0x3d97b134	0.07406846
203	0xbd6069f8	-0.05478856
204	0x3e06203c	0.13098234
205	0xbdefafa0	-0.1170342
206	0x3d80c070	0.062867045
207	0xbdb21b5a	-0.08696623
208	0xbb9e2c54	-0.0048270617
209	0xbe862e8f	-0.26207396
210	0x3d03d35b	0.032183986
211	0x3cea99bc	0.02863776
212	0xbcbe5d66	-0.023237895
213	0xbe4c0841	-0.19925024
214	0xbe553db5	-0.2082432
215	0x3de21afc	0.11040303
216	0xbe3cd571	-0.18440796
217	0x3d60f401	0.0549202
218	0x3d88bb30	0.06676328
219	0x3e185126	0.14874706
220	0xbe384fd7	-0.17999206
221	0x3e51eb80	0.20499992
222	0x3b9aa170	0.004718952
223	0xbdefc412	-0.11707319
224	0x3e4a0c4c	0.19731253
225	0x3e2ab34b	0.16669957
226	0xbd25be21	-0.040464524
227	0xbe0e94a8	-0.13923895
228	0x3d7c8eaa	0.061659493
229	0x3dd55b0c	0.104177564
230	0x3c888a85	0.016667614
231	0xbe16f686	-0.14742479
232	0xbe2978fb	-0.16550057
233	0x3e3716fe	0.17879865
234	0x3e3d98ad	0.18515272
235	0x3dbd895c	0.09254715
236	0xbda069a4	-0.07832649
237	0x3dacd825	0.08439664
238	0x3e824574	0.25443614
239	0x3e5e5db2	0.2171543
240	0x3e111478	0.14167964
241	0xbe607ff1	-0.21923806
242	0x3c7fe48f	0.015618457
243	0x3aec3656	0.0018021564
244	0x3e735d0c	0.23765963
245	0xbe2ae47d	-0.16688724
246	0x3cd09bcf	0.02546492
247	0x3e797938	0.24362648
248	0x3d557ec2	0.05212284
249	0xbe06d835	-0.13168414
250	0x3c30a134	0.010780621
251	0x3e53e8a0	0.20694208
252	0x3e5e7971	0.21726014
253	0xbe4a08f7	-0.19729982
254	0xbd4312b3	-0.047625255
255	0xbdcf1457	-0.101113014

shared_net.2.bias f4 [32]
0	0xbe47f101	-0.1952553
1	0xbe224c4f	-0.15849422
2	0xbd90d9a5	-0.070727624
3	0x3e0bc3c9	0.13648905
4	0x3d349656	0.044088684
5	0xbe2f70a0	-0.17132807
6	0xbcb61eb1	-0.022231432
7	0xbe7306ef	-0.23733114
8	0x3d08d356	0.03340467
9	0xbe430a5f	-0.19046925
10	0x3d8ce9ed	0.06880555
11	0xbe3f5c19	-0.18687476
12	0x3de54817	0.11195391
13	0xbd65c5b0	-0.056096733
14	0xbd588308	-0.052859336
15	0xbe2665ea	-0.16249815
16	0x3d7ce155	0.06173833
17	0xbe6d3c14	-0.23167449
18	0x3e641c01	0.22276308
19	0x3d9c6c96	0.076378986
20	0x3e5647db	0.20925848
21	0xbe77dee8	-0.24206126
22	0xbe508fcf	-0.20367359
23	0x3e27ca03	0.16385655
24	0xbd2f5bb0	-0.04281205
25	0x3db6f7f0	0.08934009
26	0x3e6ca5eb	0.23110168
27	0x3c1e3ab5	0.009657552
28	0xbcba04ef	-0.02270743
29	0xbe075b92	-0.13218525
30	0xbe217736	-0.15768132
31	0x3e12458f	0.14284347

policy_mean_net.0.weight f4 [1, 32]
0	0xbd7dcb2f	-0.06196135
1	0x3d1dd4fe	0.038533203
2	0x3d62e7f6	0.055396996
3	0x3e09993d	0.13437362
4	0x3e2cccf0	0.16875052
5	0x3e0ede45	0.13951977
6	0xbe44e7b0	-0.19229007
7	0x3e3dfb5e	0.1855292
8	0xbe2a614a	-0.16638675
9	0x3e3970b0	0.18109393
10	0xbe720530	-0.23634791
11	0x3ccbfb7d	0.024900192
12	0x3da529b4	0.08064595
13	0xbdb9e938	-0.09077686
14	0xbb5020b1	-0.0031757767
15	0xbccbcc67	-0.02487774
16	0xbda2707f	-0.07931613
17	0xbd5f95e6	-0.054586314
18	0x3d27dd97	0.04098281
19	0xbe033c6f	-0.12816022
20	0x3e6a73e2	0.22895768
21	0x3dc8a550	0.09797156
22	0xbd12ae79	-0.03581092
23	0xbdd4a6c2	-0.10383369
24	0x3d819b92	0.06328501
25	0x3e63f6d5	0.22262128
26	0x3e317ef6	0.17333588
27	0xbd76344b	-0.060108464
28	0x3c1ea8c3	0.009683791
29	0xbe5e94f3	-0.21736507
30	0x3e2d87d5	0.16946347
31	0x3cdc252c	0.026873194

policy_stddev_net.0.weight f4 [1, 32]
0	0xbd7ac666	-0.061224364
1	0xbe105439	-0.14094628
2	0x3abab9cd	0.0014246047
3	0x3db4bf81	0.08825589
4	0xbd5a518d	-0.05330043
5	0x3e237eda	0.15966359
6	0xbb65bdfb	-0.0035055864
7	0xbde17364	-0.11008337
8	0xbd6db643	-0.058035146
9	0x3d312175	0.043244798
10	0x3da854e3	0.08219316
11	0xbe0d24e0	-0.13783598
12	0x3daa9b93	0.08330455
13	0xbdb24184	-0.08703902
14	0x3e101de0	0.14073896
15	0xbdbeac11	-0.09310163
16	0x3c02a129	0.007972994
17	0x3d9e4008	0.07727057
18	0x3dd12e61	0.10213924
19	0x3d347d6b	0.04406492
20	0x3e333612	0.17501095
21	0xbcfe4bd3	-0.031042015
22	0x3e2e1642	0.17000678
23	0xbd00b274	-0.031420186
24	0xbc8dd987	-0.01731564
25	0x3cac511e	0.021034773
26	0x3d573969	0.052544985
27	0xbd5ac9f2	-0.053415246
28	0xbd65e423	-0.05612577
29	0x3d1c486b	0.038155
30	0xbddd20f9	-0.10797305
31	0x3d8b1ff3	0.06793203
