03/zad_2/REINFORCE_gamma_0_5.pth (torch, 6992 bytes, 8 tensors)

shared_net.0.weight f4 [16, 11]
0	0x3e90aef2	0.28258473
1	0xbd2be01f	-0.041961785
2	0xbd00bde2	-0.031431086
3	0xbd66918f	-0.05629116
4	0xbdd7cdc9	-0.10537297
5	0xbc822aa1	-0.015889468
6	0x3d4117b5	0.04714175
7	0x3df68b0c	0.1203824
8	0x3e6872d0	0.22700047
9	0x3d04f7ca	0.032462873
10	0x3e5fd438	0.21858299
11	0xbeb37523	-0.35050306
12	0xbe68f812	-0.22750881
13	0xbe6a78fb	-0.22897713
14	0x3e83a34c	0.25710523
15	0x3d8c25cd	0.068431474
16	0xbdcbf429	-0.09958679
17	0x3e1801b3	0.14844398
18	0x3d552726	0.052039288
19	0x3e00d98a	0.12582985
20	0x3e17f8d6	0.14841017
21	0xbe0877bc	-0.13326925
22	0xbe0fc353	-0.14039354
23	0x3e74b62f	0.23897623
24	0xbe7e4f21	-0.24834873
25	0xbdd56271	-0.10419167
26	0xbd50a10a	-0.05093483
27	0x3e9afce6	0.3027107
28	0xbd60b670	-0.054861486
29	0xbda47f38	-0.080320776
30	0xbea742e5	-0.32668224
31	0xbe87fd9e	-0.26560682
32	0xbe41d4e2	-0.18928865
33	0xbea418d9	-0.32050207
34	0xbe9b5834	-0.3034073
35	0x3a6681b5	0.00087931316
36	0x3dc15218	0.09439486
37	0x3ecfe0a5	0.40601078
38	0x3dd3608c	0.10321149
39	0x3dbea6cc	0.09309158
40	0x3e511c17	0.20420872
41	0xbea8c4ee	-0.32962745
42	0xbe8147e0	-0.2525015
43	0x3cfb7370	0.030694693
44	0x3e5bab74	0.21452123
45	0xbe6f8495	-0.2339042
46	0xbba1989f	-0.004931524
47	0x3e1e5ac3	0.1546431
48	0x3e56cfa3	0.20977645
49	0x3d53bb08	0.05169204
50	0xbe02dc3c	-0.12779325
51	0xbd3638b1	-0.04448766
52	0xbe7f22a9	-0.24915566
53	0x3e1c1c44	0.15245157
54	0x3e95a39e	0.29226393
55	0xbe35fe54	-0.177728
56	0xbde80f61	-0.11331058
57	0x3e5f24c8	0.21791375
58	0x3e1256b5	0.14290889
59	0x3e542294	0.20716316
60	0x3dcf70ec	0.1012896
61	0xbe2914a4	-0.1651178
62	0xbe4b7f10	-0.19872689
63	0xbd54979e	-0.051902406
64	0xbd94fda1	-0.072749384
65	0xbe8f6af7	-0.28011295
66	0x3e2926cb	0.16518705
67	0x3e6fb8b9	0.2341031
68	0xbe9575c2	-0.29191405
69	0x3e02db21	0.12778904
70	0xbe9a4200	-0.3012848
71	0x3e02e16b	0.12781303
72	0xbe1de764	-0.154203
73	0x3e1677a4	0.14694077
74	0x3eb9cd0a	0.36289245
75	0x3d5f89f8	0.054574937
76	0xbd87ab2a	-0.06624444
77	0x3d9a9a40	0.07548952
78	0xbe199464	-0.14998013
79	0xbda21570	-0.07914245
80	0x3dcb0183	0.09912398
81	0x3eb05ff6	0.34448212
82	0xbcb045f2	-0.021517728
83	0x3dec0a7a	0.11525436
84	0x3e437357	0.19086967
85	0x3de2af08	0.11068541
86	0x3e117fc8	0.14208901
87	0xbe6347e1	-0.22195388
88	0x3e4d6850	0.20059323
89	0x3e06952e	0.13142845
90	0x3e43eb0d	0.19132634
91	0x3d7a8377	0.06116053
92	0x3e57ad52	0.2106221
93	0xbd4107f1	-0.047126714
94	0xbd4b75b7	-0.04967281
95	0xbe77c8e8	-0.24197733
96	0x3e3993fe	0.18122861
97	0xbd9d1b92	-0.07671274
98	0xbdb43b0e	-0.08800326
99	0xbe5c1508	-0.21492398
100	0x3e24246b	0.16029517
101	0x3d0d7133	0.034531783
102	0xbd8e3a49	-0.06944711
103	0x3c7f6a12	0.015589254
104	0x3de2f83e	0.11082505
105	0xbcfbe186	-0.030747186
106	0x3afeae5e	0.0019430628
107	0xbe80326f	-0.25038478
108	0xbc990478	-0.018678889
109	0xbe9057de	-0.28192037
110	0xbc1f7387	-0.009732134
111	0xbdd4f5e9	-0.10398466
112	0xbca8b7ed	-0.020595515
113	0x3e35c372	0.17750338
114	0x3e2f97b5	0.17147715
115	0x3ec4be41	0.38426402
116	0x3de57883	0.112046264
117	0x3e725467	0.2366501
118	0xbec8853d	-0.39164153
119	0xbe927073	-0.28601417
120	0xbde01c42	-0.1094289
121	0x3e4270ca	0.18988338
122	0x3e48ff31	0.19628598
123	0x3e26bf6e	0.16283962
124	0xbe876d5e	-0.26450628
125	0xbd8583fd	-0.065193154
126	0xbe6f1b38	-0.23350227
127	0xbe60f391	-0.21967913
128	0xbe925166	-0.28577727
129	0x3eae1171	0.33997682
130	0x3e11fcd2	0.142566
131	0xbd6358c4	-0.055504575
132	0xbe58843c	-0.21144193
133	0x3e23543e	0.15950105
134	0x3d15d0a6	0.036575936
135	0xbdc22992	-0.09480585
136	0x3de9a723	0.11408832
137	0xbe5f94f1	-0.2183416
138	0xbe81c614	-0.25346434
139	0x3e2e1049	0.169984
140	0xbe22b658	-0.15889871
141	0x3e9e56ac	0.309255
142	0xbe3944e5	-0.18092687
143	0xbe912b07	-0.2835314
144	0xbe6244a0	-0.22096491
145	0xbda8007a	-0.08203216
146	0xbe08a553	-0.13344316
147	0x3ea3deec	0.32006013
148	0x3e2add8e	0.16686079
149	0x3d3416e0	0.043967128
150	0x3d35b181	0.044358734
151	0xbebc7aae	-0.36812347
152	0xbb3a01a1	-0.0028382319
153	0xbd8e2b36	-0.069418356
154	0xbe4c7e2e	-0.19970009
155	0xbe8e3c96	-0.27780598
156	0xbe6ffc74	-0.23436147
157	0x3e1b19a2	0.15146497
158	0x3e91937c	0.28432834
159	0x3e505676	0.20345482
160	0x3e4f5449	0.20246996
161	0xbd7b3851	-0.061333004
162	0xbeeab3e4	-0.4584037
163	0xbea01894	-0.31268752
164	0x3d4a7ab0	0.04943341
165	0xbea0181a	-0.31268388
166	0xbe9fff38	-0.31249404
167	0xbebdc94f	-0.3706765
168	0xbb06eb43	-0.0020587004
169	0xbdd4c99e	-0.10390018
170	0x3ed750a1	0.42053702
171	0x3dcc4fa1	0.099761255
172	0xbe3ac9ab	-0.18240993
173	0xbd732e03	-0.059370052
174	0x3e1cf7b4	0.15328866
175	0xbe130fb0	-0.14361453

shared_net.0.bias f4 [16]
0	0xbd68ec43	-0.05686594
1	0xbeb0db10	-0.3454213
2	0xbeba326f	-0.36366603
3	0xbef55886	-0.479191
4	0xbec8eb5b	-0.39242062
5	0xbedcc5a7	-0.43119547
6	0x3daeb5d3	0.08530774
7	0x3d492b05	0.049113292
8	0x3dc754c6	0.09732966
9	0x3e2615eb	0.16219299
10	0xbedc471b	-0.43023
11	0x3e64a613	0.22328977
12	0x3e81b01e	0.2532968
13	0xbec1c1c4	-0.37843144
14	0xbe2ebd37	-0.17064367
15	0xbea6c8d0	-0.32575083

shared_net.2.weight f4 [32, 16]
0	0xbd9437b8	-0.0723719
1	0x3cb67307	0.022271646
2	0x3e3e7101	0.18597795
3	0x3e6b3a31	0.22971417
4	0x3e331da5	0.17491777
5	0x3e3693fc	0.17829889
6	0xbd040f2c	-0.03224103
7	0xbe8a9f5b	-0.27074704
8	0x3e5ce5af	0.21571992
9	0xbaaa8164	-0.0013008532
10	0x3e0edbed	0.13951083
11	0x3e5bbec9	0.21459498
12	0xbd40b72a	-0.04704968
13	0x3e0dc878	0.13846004
14	0xbe37ac7a	-0.17936888
15	0xbe055c9d	-0.1302361
16	0x3e4ab122	0.19794133
17	0xbdcffade	-0.10155271
18	0xbc04c55b	-0.008103694
19	0xbe1faaf0	-0.15592551
20	0x3d94f795	0.07273785
21	0x3e1ac776	0.15115151
22	0x3e29461c	0.16530651
23	0x3e0d512a	0.13800493
24	0xbe84bd68	-0.25925756
25	0xbe3610ee	-0.17779896
26	0xbe06cec3	-0.13164811
27	0xbe924f0e	-0.2857594
28	0xbe8273c2	-0.2547894
29	0x3ea5e409	0.3240054
30	0xbe178e07	-0.14800273
31	0x3ea8f5b3	0.32999954
32	0xbe47141c	-0.19441265
33	0xbe6dbf02	-0.23217395
34	0xbe3471b4	-0.176215
35	0xbe5e6a11	-0.21720149
36	0xbe96a5e5	-0.29423442
37	0xbdbd6922	-0.09248568
38	0xbcfd6f05	-0.030936727
39	0xbdd60b85	-0.10451416
40	0xbdfddc4d	-0.12395535
41	0xbda80296	-0.08203618
42	0xbe9ea66f	-0.30986354
43	0xbdc3320d	-0.09531031
44	0xbe2a1499	-0.1660942
45	0xbe87cd9c	-0.26524055
46	0xbe0ecaf2	-0.13944605
47	0x3d8259ef	0.0636481
48	0x3cfd263e	0.030902024
49	0xbe85710d	-0.26062813
50	0xbdad4ab1	-0.08461512
51	0xbead25c5	-0.33817878
52	0xbc971225	-0.01844127
53	0xbe5c68e6	-0.2152439
54	0x3d90272a	0.0703872
55	0xbe67de52	-0.22643402
56	0x3e4d07b8	0.20022476
57	0xbcfba388	-0.030717626
58	0xbe20ffcf	-0.15722583
59	0xbd890e37	-0.066921644
60	0x3d8a8a2c	0.067646354
61	0xbeafec06	-0.3435976
62	0x3e342012	0.17590359
63	0x3cd3a492	0.02583531
64	0x3e48a327	0.19593488
65	0xbe98587c	-0.29755008
66	0xbe7393db	-0.23786871
67	0x3dc8f7bd	0.09812877
68	0xbd8cd39f	-0.06876301
69	0x3d95cf1a	0.07314892
70	0x3e75f3dc	0.24018806
71	0xbd456f59	-0.048201893
72	0x3d411137	0.047135558
73	0xbe12aa62	-0.14322808
74	0xbe7047df	-0.23464917
75	0x3e54baca	0.2077438
76	0xbd92283b	-0.071365796
77	0x3d287a4c	0.041132256
78	0x3d155426	0.036457203
79	0x3d8830bf	0.066499226
80	0x3e023f8a	0.1271955
81	0x3e827c23	0.25485334
82	0xbe419066	-0.1890274
83	0x3e8a1934	0.26972353
84	0xbdbb51cd	-0.09146462
85	0x3e44c934	0.19217378
86	0xbe8d180b	-0.27557406
87	0x3dcd8340	0.100347996
88	0x3d9f8e22	0.077907816
89	0xbe02ac25	-0.1276098
90	0x3d6e5885	0.058189888
91	0xb7308648	-1.0521682e-05
92	0xbd5c603b	-0.05380271
93	0x3d07e4e6	0.03317728
94	0x3e1c6665	0.15273435
95	0xbc241bb1	-0.010016368
96	0x3e4f1e44	0.20226389
97	0x3ddb5133	0.10708847
98	0xbdab274a	-0.08357103
99	0xbdfdf04c	-0.123993486
100	0x3dd8d4ef	0.10587489
101	0x3e0ae7f5	0.13565047
102	0x3e72c64b	0.23708455
103	0xbdf087b4	-0.11744633
104	0xbd2a76a7	-0.041617062
105	0xbe10e4e0	-0.14149809
106	0x3e3ac2bd	0.1823835
107	0xbd11994b	-0.035546582
108	0x3c059f7a	0.008155698
109	0xbe12afc2	-0.14324859
110	0xbe635e5d	-0.22203965
111	0xbd15c800	-0.036567688
112	0x3dc3f91e	0.09569
113	0xbe190ff1	-0.14947487
114	0x3e6aeb20	0.22941256
115	0xbd83e133	-0.06439438
116	0xbe20f276	-0.15717492
117	0xbd5a22a3	-0.05325569
118	0x3d691dac	0.056913063
119	0x3d789433	0.06068821
120	0xbe0488d4	-0.12942821
121	0x3ddfc0a0	0.10925412
122	0xbe4fd71d	-0.20296903
123	0x3e8e8010	0.2783208
124	0xbdcbe838	-0.099564016
125	0xbd3b3532	-0.045705028
126	0x3da6eccb	0.081506334
127	0x3de85e4b	0.1134611
128	0x3d624f00	0.05525112
129	0x3ebf633d	0.373804
130	0x3d86998f	0.06572258
131	0x3ecd9fc1	0.40160945
132	0x3daa2f1a	0.08309765
133	0x3d80007c	0.062500924
134	0xbc672468	-0.014107801
135	0x3d56d790	0.05245167
136	0xbe4b45d2	-0.19850853
137	0xbe2da12c	-0.16956013
138	0x3e407e59	0.18798198
139	0xbe745785	-0.23861511
140	0x3d6e7038	0.05821249
141	0xbd038129	-0.0321056
142	0x3e8d609c	0.2761277
143	0x3ea4943c	0.32144344
144	0xbe22e9cb	-0.15909497
145	0x3ea6b4b2	0.32559735
146	0xbca7f893	-0.020504272
147	0x3e3c526f	0.18390821
148	0x3e805ed3	0.25072345
149	0x3e02cf85	0.12774475
150	0xbdd04428	-0.1016925
151	0x3ce3a618	0.02778916
152	0x3d664e6b	0.05622713
153	0x3e49a598	0.19692075
154	0xbc7e2730	-0.015512273
155	0x3c3eca0a	0.01164485
156	0xbc31fd59	-0.010863625
157	0x3d659588	0.056050807
158	0x3db138fa	0.086534455
159	0xbe0e04e9	-0.1386906
160	0x3e6b9631	0.23006512
161	0x3e11b223	0.1422811
162	0x3d97498b	0.07387074
163	0xbd24dc8b	-0.04024939
164	0x3cd54f34	0.026038744
165	0xbe3ee6a1	-0.18642665
166	0xbd2c3659	-0.042044017
167	0xbdd0b4fb	-0.10190769
168	0xbe7ec04a	-0.2487804
169	0xbe201052	-0.15631226
170	0x3e18096b	0.14847343
171	0x3cb9d66c	0.022685252
172	0x3d82e6ca	0.06391676
173	0xbe11ef92	-0.14251545
174	0xbdd25149	-0.1026941
175	0xbd66af32	-0.056319423
176	0x3dd448ad	0.10365424
177	0xbe433cbb	-0.19066136
178	0xbcd5b7cb	-0.026088616
179	0x3c21db0b	0.009878884
180	0x3e640e7e	0.22271153
181	0xbe3b6e29	-0.18303742
182	0x3e0d471a	0.13796654
183	0xbe6eb49c	-0.23311085
184	0x3e891f1f	0.26781556
185	0x3dbf032b	0.09326776
186	0xbe624440	-0.22096348
187	0x3e501737	0.20321356
188	0xbe5149ed	-0.20438357
189	0xbe88f78d	-0.26751366
190	0x3e5325c0	0.20619869
191	0xbd41fc82	-0.04735995
192	0xbd9c0266	-0.07617645
193	0x3e5774f1	0.21040703
194	0x3d1ed55e	0.0387777
195	0x3e7523ac	0.23939389
196	0xbdd777b3	-0.10520878
197	0x3e394f46	0.18096647
198	0xbdf6fb06	-0.12059598
199	0xbe63d818	-0.22250402
200	0x3e3483ea	0.17628446
201	0x3dd72437	0.10504954
202	0x3e82ae03	0.25523385
203	0xbe70dd2a	-0.23521867
204	0x3e31d9bc	0.17368215
205	0x3ea3ff7c	0.32030857
206	0x3e94409d	0.28955546
207	0xbda4205c	-0.080139846
208	0x3e196164	0.14978558
209	0x3c981cde	0.018568452
210	0xbe04ba2a	-0.12961641
211	0x3dca46c1	0.098767765
212	0xbc03b591	-0.008038894
213	0xbd6acbed	-0.057323385
214	0xbe711e88	-0.23546803
215	0x3e2c1a4e	0.1680691
216	0xbe80250d	-0.25028268
217	0xbe13c7e8	-0.14431727
218	0xbd537504	-0.051625267
219	0x3dcb1cb0	0.09917581
220	0x3e5317dc	0.2061457
221	0xbe2bf9c2	-0.16794494
222	0xbe88393b	-0.26606163
223	0xbe092094	-0.13391334
224	0xbe199942	-0.1499987
225	0xbd2392f7	-0.03993508
226	0xbe406e3d	-0.18792053
227	0xbe535f23	-0.2064176
228	0x3dbf2d3b	0.09334799
229	0xbdd47f7f	-0.103758805
230	0xbe5d4806	-0.21609506
231	0xbdfc3880	-0.12315464
232	0x3e804b3a	0.25057393
233	0x3e460632	0.19338301
234	0x3e36d8ff	0.17856215
235	0xbdcbf272	-0.09958352
236	0xbdb27c1c	-0.08715078
237	0xbc9da869	-0.019245343
238	0x3e2597c4	0.16171175
239	0x3de3aa0b	0.111164175
240	0x3d37f8b1	0.044914905
241	0x3de30825	0.11085538
242	0xbd291b59	-0.041285846
243	0x3d07b70f	0.033133563
244	0xbe0a5005	-0.13507088
245	0x3e987734	0.29778445
246	0xbe922aaf	-0.2854819
247	0xbe65d31d	-0.22443815
248	0x3e19d83a	0.1502389
249	0x3e0cf610	0.1376574
250	0x3e9db583	0.30802545
251	0xbe4ee862	-0.20205835
252	0xbde15306	-0.110021636
253	0x3eaa031e	0.33205503
254	0x3e1cfd3d	0.15330978
255	0xbd401fa4	-0.046905175

shared_net.2.bias f4 [32]
0	0xbe759cf9	-0.23985662
1	0xbe5b55d3	-0.21419458
2	0x3e7bd889	0.2459432
3	0xbd076610	-0.03305632
4	0x3e645d5e	0.22301242
5	0xbc52b948	-0.012861557
6	0x3eae32a6	0.34023017
7	0xbdb116be	-0.08646916
8	0x3cd0b29d	0.025475794
9	0xbb83fc3c	-0.0040278714
10	0xbcabf75a	-0.02099197
11	0x3e5a7c36	0.21336445
12	0xbebeefb1	-0.37292245
13	0xbd43a92f	-0.047768768
14	0x3d972c6b	0.07381519
15	0xbe358314	-0.17725784
16	0x3e8f6659	0.28007773
17	0xbc4c9766	-0.012487268
18	0x3e0d141e	0.13777205
19	0x3d8387b4	0.06422368
20	0xbdd0075a	-0.10157652
21	0x3e97fcba	0.29685003
22	0x3da1748a	0.07883556
23	0xbe40d0ad	-0.18829603
24	0x3eb19e0b	0.3469089
25	0xbe6324c6	-0.22181997
26	0x3eb32c46	0.34994715
27	0x3e179f6e	0.14806911
28	0x3cf51402	0.029916767
29	0xbd66f3cc	-0.056384847
30	0xbe67f77d	-0.22653003
31	0xbe8f56d0	-0.2799592

policy_mean_net.0.weight f4 [2, 32]
0	0x3dd9a76e	0.10627638
1	0x3dc28d8b	0.094996534
2	0xbc60ef66	-0.013728952
3	0x3d82000e	0.06347667
4	0x3ddf5297	0.10904425
5	0xbd4b450a	-0.049626388
6	0xbdd5a834	-0.10432473
7	0x3dee26bb	0.11628481
8	0x3b85e558	0.004086178
9	0xbdf9873a	-0.121839955
10	0xbdda4776	-0.10658161
11	0x3e0322fd	0.12806316
12	0x3dc71ed4	0.09722677
13	0xbe255834	-0.16146928
14	0x3bcb870f	0.0062111686
15	0x3d8fd14d	0.07022343
16	0x3e0ed4b0	0.13948321
17	0xbd3e049e	-0.046391122
18	0x3cc46f27	0.023978783
19	0xbe1093a7	-0.14118825
20	0xbe237a59	-0.1596464
21	0xbd7586af	-0.059942897
22	0xbd4a11f0	-0.049333513
23	0x3d9ba400	0.0759964
24	0x3cf46932	0.029835317
25	0xbb9d6677	-0.0048034745
26	0x3d684f8d	0.05671649
27	0x3e121157	0.14264427
28	0xbd70c0c2	-0.05877758
29	0x3e1482cd	0.14503022
30	0xbe0f4a3d	-0.13993163
31	0x3c54aadc	0.012980189
32	0x3ddada16	0.10686128
33	0x3d85b5cf	0.06528818
34	0x3db8ce94	0.09023777
35	0x3cc0bf39	0.023528682
36	0xbd16d845	-0.036827344
37	0x3e132d5c	0.14372772
38	0x3d90a2d5	0.07062308
39	0xbb3d26ea	-0.0028862306
40	0x3daee599	0.08539886
41	0x3d745237	0.05964872
42	0x3d027d57	0.031857815
43	0x3cfb83fe	0.030702587
44	0x3e1dd725	0.15414102
45	0x3dfb8b32	0.12282409
46	0x3dc1efa9	0.0946954
47	0x3d9af104	0.07565501
48	0xbc8d0c66	-0.017217826
49	0x3dc2b823	0.095077775
50	0xbe3202ab	-0.1738383
51	0xbd73de3b	-0.059538107
52	0xbde77702	-0.11301996
53	0x3d83a43e	0.06427811
54	0x3cd88fd0	0.026435763
55	0x3e4069d0	0.18790364
56	0x3e29a657	0.1656736
57	0xbc9fee4f	-0.019522814
58	0x3dbcc72f	0.09217679
59	0x3d724f0e	0.059157424
60	0x3dfac54b	0.12244662
61	0xbe02841f	-0.12745713
62	0x3d207586	0.03917458
63	0xbc94f225	-0.01818187

policy_mean_net.0.bias f4 [2]
0	0xbe27412d	-0.16333456
1	0xbd14475a	-0.03620086

policy_stddev_net.0.weight f4 [2, 32]
0	0x3e351421	0.1768346
1	0x3e7ec120	0.24878359
2	0xbe6e3cf6	-0.23265442
3	0xbe8305df	-0.25590417
4	0xbe9fc7aa	-0.3120702
5	0x3db34264	0.087528974
6	0xbd0b046f	-0.033939775
7	0xbdb7a5d1	-0.08967174
8	0x3e90a895	0.28253618
9	0x3e223735	0.15841372
10	0xbc8907a9	-0.016727285
11	0xbe4869b6	-0.19571576
12	0x3eb30414	0.3496405
13	0xbde34828	-0.11097747
14	0x3d01d2f0	0.031695306
15	0x3e98f4b9	0.2987421
16	0xbe6e73a1	-0.23286296
17	0x3d3a8c9b	0.045544248
18	0xbe19a0a0	-0.1500268
19	0xbe2cae70	-0.16863418
20	0x3c8b0a98	0.016972825
21	0xbd0f4810	-0.034980834
22	0x3e3cebab	0.18449275
23	0x3e10619a	0.14099732
24	0xbea85174	-0.32874644
25	0x3e8ee78b	0.27911028
26	0xbea4a15a	-0.3215435
27	0xbd8d1880	-0.06889439
28	0xbe529f1b	-0.20568506
29	0x3d3c5681	0.045980934
30	0x3de9838e	0.11402045
31	0x3e59420c	0.21216601
32	0x3d56a157	0.05239996
33	0x3e560a5f	0.20902394
34	0xbec0cff9	-0.3765867
35	0xbdc54614	-0.09632507
36	0xbd7ef822	-0.062248357
37	0x3e03c752	0.12869003
38	0xbe8e1e1b	-0.27757344
39	0xbd9458dd	-0.07243512
40	0x3e3f3770	0.18673491
41	0x3e40dfc2	0.18835357
42	0x3d9927fd	0.0747833
43	0xbdbd4c1b	-0.092430316
44	0x3df522c8	0.119695246
45	0xbd7c9cd0	-0.061672986
46	0xbe57ae1d	-0.21062513
47	0x3e49f1f7	0.19721209
48	0xbe9c1da2	-0.30491358
49	0xbddc1eed	-0.10748086
50	0xbe6305fc	-0.22170252
51	0x3dc33a54	0.095326096
52	0x3e83c7a2	0.25738245
53	0xbeac519d	-0.33656016
54	0xbdb445f0	-0.08802402
55	0x3e74a26c	0.23890084
56	0xbe981074	-0.29700053
57	0x3ea08da4	0.31358063
58	0xbe9bb42b	-0.30410895
59	0xbe517349	-0.20454134
60	0xbdd7c09d	-0.10534785
61	0x3dbbe990	0.09175408
62	0x3e516090	0.20446992
63	0x3e70e1c6	0.23523626

policy_stddev_net.0.bias f4 [2]
0	0xbe95515a	-0.2916363
1	0xbdc5a1c5	-0.09649996
