03/zad_2/REINFORCE_gamma_0_9.pth (torch, 6992 bytes, 8 tensors)

shared_net.0.weight f4 [16, 11]
000000 86 6b d7 3d 9d 33 a5 3c 21 f5 52 3e 8d c1 56 be
       0.10518555 0.020166213 0.20601322 -0.20972271
000010 c6 71 90 bb 96 21 1e 3e f2 c9 91 3e e3 5b 08 be
       -0.004408094 0.154425 0.28474385 -0.13316302
000020 a2 60 89 3d f4 e9 dc 3d 8c 1d 51 be cd 30 50 be
       0.06707884 0.107868105 -0.20421427 -0.20331116
000030 86 b1 95 3c 30 80 67 3e be 35 5f 3e 84 6a 4c be
       0.018273126 0.22607493 0.21797845 -0.19962507
000040 72 70 5f be 3b 74 a4 be 65 be 53 3e b0 ee c4 bd
       -0.21820238 -0.32119927 0.20678098 -0.096158385
000050 7d c9 85 3e 50 26 71 3e 83 17 c9 3c a8 43 8a be
       0.26130286 0.23549771 0.024547344 -0.27004743
000060 0b c4 40 3d 8e 07 88 bd 5e 3b 1d 3e 3f f6 c0 bc
       0.04706196 -0.06642066 0.15354678 -0.02355492
000070 78 50 16 3e 18 6a f3 3b 91 ab f4 bd a1 39 7c be
       0.14679134 0.007428419 -0.11946786 -0.24631359
000080 60 d2 1c 3d c4 5c 0e 3c 63 08 5c 3e 59 af 88 3e
       0.038286567 0.008689109 0.21487574 0.2669628
000090 4a 34 28 3c 60 5f 4c be bd ef 3a 3e 38 0a 35 3d
       0.010266373 -0.19958258 0.18255515 0.0441992
0000a0 06 eb 47 be dd f9 ef bd e4 af 95 3c 4a 3f 8f 3e
       -0.19523248 -0.117175795 0.018272348 0.27977973
0000b0 d3 ef 5c 3e 38 73 ec 3d c9 87 6e bd 19 0e 99 be
       0.2157586 0.11545414 -0.058234964 -0.29893568
0000c0 9b 27 3c 3e ab 5d 88 bd 5e 23 8b bd c7 eb 3d be
       0.18374483 -0.06658491 -0.06793855 -0.18546973
0000d0 f1 c0 68 be a5 1d 2e 3e 60 2d 72 bc 16 d4 3f be
       -0.22729851 0.17003496 -0.014781326 -0.18733248
0000e0 d7 94 48 3e d2 3e 6c 3e bb 5a 85 be c0 19 50 3e
       0.19588028 0.23070839 -0.26045784 0.20322323
0000f0 00 23 76 3c 3d 8e 63 be 7a 9f 73 3e 69 18 4d 3e
       0.015022993 -0.22222228 0.23791304 0.20028843
000100 ee b6 85 3d 7c de 66 3e 11 11 79 bd 4f 1c 31 be
       0.06529032 0.22545809 -0.06080729 -0.17295955
000110 9e 15 bb bd 78 e2 42 bd a7 29 4a be fc 7c 12 3d
       -0.091349825 -0.04757926 -0.19742452 0.035763726
000120 3d 11 a0 3e 42 81 d2 3c 4d e8 47 3e c0 f7 a1 3e
       0.31263152 0.0256964 0.1952221 0.3163433
000130 40 68 be bd 88 e0 46 3e 08 c8 be 3c b9 4e a3 bd
       -0.09297228 0.1942159 0.023288742 -0.079739995
000140 66 56 6b 3e 03 91 5f be f9 e2 43 be 6d 60 cd 3d
       0.22982177 -0.21832661 -0.19129552 0.100281574
000150 e8 9b 42 be 74 c8 7c be 28 81 7e be bc 73 7a 3e
       -0.19004786 -0.24685842 -0.24853957 0.24458212
000160 4b 7c 95 3e 5e c7 86 3e d0 60 fb bd 44 1f f2 bd
       0.2919639 0.2632398 -0.12274325 -0.1182237
000170 be b1 0a be a7 c6 23 be 8a 25 ba be 92 39 03 be
       -0.13544366 -0.15993749 -0.36356765 -0.1281493
000180 c7 22 57 bd 54 64 f4 bd b4 d1 7e 3e 0e f6 93 be
       -0.0525234 -0.119331986 0.24884683 -0.28898662
000190 5c af c0 be b6 a0 a9 3e e3 6e 46 be 21 92 c7 bd
       -0.3763379 0.33130425 -0.19378237 -0.09744669
0001a0 1d b5 61 bd 64 67 a0 3e ac a0 4b 3e 81 4b 1c be
       -0.055104364 0.3132888 0.1988551 -0.15263177
0001b0 f9 cf 8c be 50 52 8b 3d 89 f5 e6 3d d4 9a 5d be
       -0.2750242 0.06802809 0.11277301 -0.21641093
0001c0 49 1c 07 3e 99 fa 6f bd af 8d b1 bd e2 5f 34 be
       0.13194384 -0.058588598 -0.08669602 -0.17614701
0001d0 3e eb 7e 3e 7f 47 4d be be ae ea 3d 93 29 af bd
       0.24894425 -0.20046805 0.11459111 -0.085528515
0001e0 b0 99 ec bc cf d3 40 3d 60 74 98 3e 45 dd 60 be
       -0.028881878 0.047076996 0.29776287 -0.21959408
0001f0 2a 27 42 be a3 9e 91 be 9e 29 30 3e 27 a2 00 bd
       -0.18960252 -0.28441343 0.17203376 -0.03140464
000200 d4 e0 6b be b2 d4 38 be ec 0f 2d 3e dc 88 6c bd
       -0.23034984 -0.18049887 0.16900605 -0.057747707
000210 94 e9 71 be 65 15 01 3e ba 2e 24 bd 73 d7 92 3d
       -0.23624259 0.12605818 -0.040083624 0.0717
000220 34 fc 3c be 4f 0e 1d be 9f a5 95 3e 44 58 57 bc
       -0.18455583 -0.1533749 0.2922792 -0.013143603
000230 d0 a2 37 3d fd 87 c6 3d 06 e0 4c be fb d8 89 be
       0.044833004 0.096939065 -0.20007333 -0.26923355
000240 92 ef 77 be 0e f3 45 3d 5b 3f 92 3e 8c b4 bb 3e
       -0.24212483 0.0483275 0.2856396 0.36661184
000250 56 28 e9 3d 92 48 4d 3c 64 be 1c 3d 97 21 d4 bd
       0.113846466 0.012529509 0.03826751 -0.10357969
000260 66 1b ff bd 4f 1a 6f be 75 13 0a be 9d fd 09 be
       -0.12456398 -0.2334988 -0.13483985 -0.13475652
000270 3d 71 92 3e 8c 42 5d be be ac 74 3d 1b 8d 76 3d
       0.2860202 -0.21607417 0.059735052 0.060193162
000280 47 cd 8a be d6 87 5e be e0 2e 29 be 75 50 55 3e
       -0.2710974 -0.21731505 -0.16521788 0.20831473
000290 e0 ba 52 3e 9e ec 9a 3d 26 ed 8a be 21 7d 44 3c
       0.205791 0.075646624 -0.27134055 0.011992724
0002a0 df 1a 54 be a3 65 44 3e 6b 1a ec bd 9e e6 a3 3e
       -0.20713376 0.19179396 -0.11528476 0.32011884
0002b0 12 d5 44 3e e0 44 38 3d 00 23 d8 3a 60 e0 ac 3c
       0.19221905 0.04498756 0.0016489923 0.021103084

shared_net.0.bias f4 [16]
000000 fb 05 b6 be 48 52 d4 3d a6 31 2a be 50 ac 85 3e
       -0.35551438 0.103672564 -0.16620502 0.26108027
000010 c7 21 92 be 37 62 7a bd 5e 2e 8b bd 27 9c 71 be
       -0.28541395 -0.06112882 -0.06795953 -0.23594724
000020 40 87 10 bd d4 81 a1 be 84 72 4c be cd 05 ca 3e
       -0.035285234 -0.31544363 -0.19965559 0.3945755
000030 67 cf b5 bd ea 37 e6 3d b5 4e 90 be 7b 0c df be
       -0.088774495 0.112411335 -0.2818505 -0.4356421

shared_net.2.weight f4 [32, 16]
000000 7a 31 98 3e eb 56 76 be bb 8e c2 bd 1b 50 3e 3c
       0.29725248 -0.24056594 -0.0949988 0.011615778
000010 86 ec 46 be 32 33 2b bd b8 76 eb 3d 75 da 74 bd
       -0.19426164 -0.04179687 0.11497253 -0.05977865
000020 17 31 05 3d 40 05 96 3e 8f 81 d7 bb 20 38 aa 3c
       0.03251752 0.2930088 -0.006576724 0.020778716
000030 54 2e 6e 3e 01 e0 55 3e e4 c0 ae 3d 6e e8 1b 3c
       0.2325986 0.20886232 0.08532885 0.009515865
000040 7d 8b ff bc 6e 86 73 be cd d7 57 3e 6a 25 ad 3d
       -0.031194443 -0.2378175 0.21078415 0.08454402
000050 89 fd 80 be 0b fe 08 be aa b8 09 3e 3a c0 37 be
       -0.25193432 -0.1337816 0.1344935 -0.17944422
000060 10 b9 70 bd fd db 09 3e b8 31 16 3e 1a b4 92 3d
       -0.05877024 0.13462825 0.14667404 0.07163258
000070 7a 59 0d bd c4 22 69 3e eb a1 8d be 70 61 ac 3d
       -0.03450916 0.22767168 -0.27662596 0.08417022
000080 1e a2 f6 3d 91 b4 c3 3c 3d b7 10 3c 3d 92 8e 3e
       0.1204264 0.023889812 0.00883275 0.27845946
000090 a2 0b 53 bd 9d 82 b3 3d ad 80 9d be 06 79 9f bc
       -0.051524766 0.08765147 -0.30762234 -0.019466888
0000a0 e5 f5 f9 3c 2a 51 39 be 54 24 87 be 58 2c 8e 3d
       0.03051276 -0.18097368 -0.26394904 0.06942052
0000b0 4d 99 44 be f6 1e 09 be 63 5a 9a bc 8a 20 34 be
       -0.19199105 -0.13390717 -0.018841928 -0.17590538
0000c0 48 6c ba 3c 04 b2 24 be 96 cf 1e 3e f9 c7 85 3d
       0.02275671 -0.16083533 0.15508875 0.065322824
0000d0 5d f9 ff 3d 66 c4 73 bd e2 4d 43 3d c1 af f1 bd
       0.12498734 -0.059513472 0.047681697 -0.118011005
0000e0 e2 96 16 be 31 fb 5d 3e 56 5f dc 3d 90 12 41 be
       -0.14705995 0.21677853 0.107603714 -0.18854737
0000f0 25 c2 b0 bc 20 b4 4d 3e 21 4f 63 bd 2b 66 a4 3c
       -0.02157695 0.20088243 -0.055495385 0.020068249
000100 d7 77 8c bb 2e c5 34 bd 46 df 5a be 9c 45 29 3e
       -0.004286747 -0.044133358 -0.21374235 0.1653046
000110 39 af 3a bd fd 0c 02 3d a8 48 70 3d b9 66 02 be
       -0.04557726 0.031750668 0.05866304 -0.12734498
000120 c8 da 1d 3e 93 2c 05 bd 36 28 f8 bd 29 4f 9c bc
       0.1541549 -0.032513212 -0.12117045 -0.019080715
000130 71 59 f1 3b 84 30 69 bd 8c c6 d8 bd 53 b4 2d 3e
       0.0073653986 -0.056931034 -0.10584745 0.1696332
000140 30 b2 0a bd da 87 66 3e 91 e8 0e 3e cf a5 1e 3e
       -0.03386134 0.22512761 0.13955905 0.15492938
000150 b1 4d 64 3c f6 c8 0c 3d c8 69 39 bd 14 12 67 3c
       0.013934539 0.03437134 -0.045266896 0.014103431
000160 9f c9 62 3e 8a 46 47 be bd 02 0f 3e 05 b6 fe 3d
       0.22147225 -0.19460502 0.13965888 0.12437061
000170 e4 f0 32 be c8 40 28 3e 0d e5 de bc 24 09 cf 3d
       -0.17474705 0.16430962 -0.02720883 0.10109165
000180 8f 6e c6 3d ee d7 cd 3b d2 87 e8 3c 25 c8 5e 3c
       0.09689056 0.0062818443 0.028385077 0.013597523
000190 f2 72 ab 3d 5b b9 34 bd 7f df a4 3e c4 a3 97 3e
       0.083715335 -0.04412208 0.32201764 0.2961713
0001a0 ea 51 2f be 59 d6 82 bd a0 75 a3 39 72 f9 10 be
       -0.17121091 -0.0638854 0.0003117742 -0.14157656
0001b0 3e ea dd bd f1 aa 5d bd 7a 9e 83 3b dc ad 59 3e
       -0.10835694 -0.0541181 0.0040166946 0.21257728
0001c0 1d 12 96 be 2f 75 6a 3e bf 7b 40 be fc 7e 8b 3e
       -0.29310694 0.22896264 -0.18797205 0.2724532
0001d0 bc bd 36 be db 1f d3 3d d4 d0 33 3e 13 cb 1d be
       -0.17845815 0.1030881 0.1756013 -0.15409498
0001e0 5f c4 20 3e 09 59 cd bd 61 03 e5 bc 59 1d 38 3e
       0.1569991 -0.10026748 -0.027955713 0.17979945
0001f0 0b 1f d5 bc f1 73 8c bd f3 84 33 3e ff 2f 94 be
       -0.026015779 -0.068580516 0.17531185 -0.28942868
000200 de d5 04 3e 5a cd 59 3e 39 4b 51 3b fb 04 55 be
       0.12972209 0.21269742 0.0031935705 -0.20802681
000210 7a 31 e1 3d 52 ac 40 be 6b 26 2a 3e eb 60 4e 3e
       0.10995765 -0.18815735 0.16616218 0.20154159
000220 62 09 25 bd 25 23 b8 bd a6 f1 7f be fe 3c 3a bd
       -0.04029215 -0.08991078 -0.24994525 -0.045468323
000230 ab 19 41 3e c7 a8 5c be 84 a0 c4 bc 5d dc c3 3d
       0.18857448 -0.21548758 -0.024002321 0.09563515
000240 61 89 4c be 34 d9 f1 bd 98 60 bb 3d 9b 64 52 3e
       -0.19974281 -0.11809006 0.09149283 0.2054619
000250 d0 8a 74 be 15 5d e2 bd 3a f8 20 3e a2 8b 85 bd
       -0.23881078 -0.1105291 0.15719691 -0.065207735
000260 da d9 d6 bc b4 85 e5 3c 92 d5 69 3e 25 2f 30 bd
       -0.026226927 0.028017856 0.22835377 -0.04301371
000270 23 56 30 be e7 78 56 3e 42 77 1a be 0d fb 80 3c
       -0.17220359 0.20944558 -0.15084556 0.01574471
000280 7f f5 e1 3d ca 7f 21 3e 02 c5 29 bd d4 fd c6 bd
       0.11033153 0.15771404 -0.041447647 -0.097163826
000290 1f 89 26 3e 16 9b 24 3d 04 b9 f9 bd 20 0b f8 bd
       0.16263245 0.040186964 -0.12193492 -0.12111497
0002a0 0d 6e d0 3d ea e9 f2 bd 0a 87 30 be ef 46 58 3e
       0.101772405 -0.11861022 -0.17239013 0.21120809
0002b0 c2 7b 48 3e 34 40 17 3e 90 7b ca 3d 65 ca 71 3e
       0.1957846 0.14770585 0.09886849 0.23612364
0002c0 e6 7d 3d 3d 8e bb 0c 3d 4a af 3b 3e a1 b4 5f be
       0.046262644 0.034358554 0.18328586 -0.21846248
0002d0 3a ef 18 3c ce fe b9 bd 59 8c bb 3d 1c 1f ed 3c
       0.00933438 -0.09081803 0.091576286 0.028945498
0002e0 d8 10 eb bd e2 4d 73 3e 36 28 81 3e bc 75 36 bd
       -0.11477822 0.23760179 0.2522599 -0.044545874
0002f0 e8 ee 49 3e 8f e3 23 3e 73 00 5d 3c f4 8c 0a 3d
       0.19720042 0.16004775 0.013488877 0.03382583
000300 7c bd d0 3d 7a d1 2f bd 89 58 3d be d9 f1 39 be
       0.10192391 -0.04292438 -0.18490805 -0.18158664
000310 82 0d 00 3e 9b e3 2f 3e 9f 0f 30 bd 31 d6 62 bc
       0.12505153 0.17176668 -0.042983647 -0.0138450125
000320 46 08 2c 3e fe 80 43 be 7a 06 50 3e b9 63 b5 3d
       0.16800031 -0.19092175 0.2031497 0.08856911
000330 8a c5 54 be 9a d7 ac bd 25 a8 79 be e5 b6 21 be
       -0.2077848 -0.0843956 -0.24380548 -0.15792425
000340 e4 f0 53 be 64 3a 40 be 3f 8d 81 be 95 f7 0e be
       -0.20697361 -0.18772274 -0.25303075 -0.13961633
000350 4b c3 35 3d 6a 26 df 3c 70 93 3c bd c5 ab 70 be
       0.0443757 0.027239997 -0.046039045 -0.23503025
000360 eb d1 15 be d7 83 a8 bb ae 02 10 3e c2 90 21 be
       -0.14630859 -0.0051426697 0.14063522 -0.15777877
000370 d7 e6 fd bb 4b 1d d2 3d 6f bb 2b be a8 bf 77 be
       -0.0077484655 0.102594934 -0.16770719 -0.24194205
000380 4a 8d 96 3d c8 66 e4 3d 6f 7f 63 3e 4f 32 20 3e
       0.073511675 0.111524165 0.22216581 0.15644191
000390 ed 1c d6 bd bf e4 9f bd 87 7a e0 3d 7b 38 59 be
       -0.10454736 -0.07807302 0.1096087 -0.21212952
0003a0 a0 73 2e be e6 71 5c 3e 7e d1 6f bd aa 71 14 3d
       -0.17036295 0.21527824 -0.058549397 0.03624121
0003b0 21 5c 2e 3d 21 39 41 3e 47 74 98 3d 57 23 15 be
       0.04256833 0.18869449 0.07444053 -0.14564262
0003c0 92 41 5d 3e 53 e5 ea bd c9 6a 5f be 9e ca ee bc
       0.21607044 -0.114695214 -0.21818079 -0.02914935
0003d0 09 6f b3 3c c0 d4 12 3d 13 a2 b9 3d a1 00 e5 bc
       0.021903532 0.035847425 0.09064116 -0.027954401
0003e0 c2 4d 74 bd 68 10 02 3e 50 3e 3d 3e 11 db 50 be
       -0.059644468 0.12701571 0.18480802 -0.20396067
0003f0 eb ef 1a be f0 af 87 3e 02 d4 92 3e 26 97 b7 3d
       -0.15130584 0.26501417 0.28677374 0.08964376

shared_net.2.bias f4 [32]
000000 df 40 a9 be 61 35 83 be 69 f1 b3 bc 8d e8 59 be
       -0.33057305 -0.25626662 -0.0219657 -0.21280117
000010 be bb 97 3e a6 b8 1d 3e 38 fd 98 bd c9 5f 9f 3e
       0.29635423 0.15402469 -0.07470173 0.31127766
000020 de 99 11 3d da 95 81 3e 59 0d 58 be d1 08 ce bd
       0.03554713 0.2530964 -0.21098842 -0.10060275
000030 eb a8 5f 3e 0b 5f 2a bd fd 86 1e 3c b3 04 31 bd
       0.21841781 -0.041594546 0.009675738 -0.043217372
000040 46 8d ea 3d 5e 1a 87 be f7 b5 22 be be 04 2d be
       0.11452727 -0.26387304 -0.15889727 -0.1689634
000050 97 45 d0 bd 85 58 d2 3d 1e 78 68 3e 64 3d 1f bc
       -0.10169523 0.1027079 0.22702071 -0.0097192265
000060 b6 3d 80 bc 10 d8 63 3d ae b2 0a 3e 91 59 63 bd
       -0.015654426 0.055625975 0.13544723 -0.05550534
000070 f4 f8 23 bd 78 21 d6 bd 18 15 34 3e 54 fd 99 3e
       -0.040032342 -0.104556024 0.17586172 0.30076087

policy_mean_net.0.weight f4 [2, 32]
000000 f6 62 04 bd a6 73 c3 bc 12 d3 df 3d 09 f6 8f bd
       -0.03232094 -0.023858856 0.1092893 -0.07029349
000010 48 48 26 be b2 6f 1c be fd c9 1d 3e 45 16 9c 3d
       -0.1623851 -0.15276983 0.15409084 0.07621435
000020 60 b1 1e bc a9 f4 c3 bd e7 9e 46 3e 23 f0 02 be
       -0.009685844 -0.095681496 0.19396554 -0.12786917
000030 18 b9 13 be e2 ae 81 bb 7f 04 56 3d e1 af c1 3d
       -0.14426076 -0.0039576152 0.05225038 0.09457374
000040 1c e7 a9 bd 32 94 bd 3d c7 81 93 3d 74 91 f5 bc
       -0.08296034 0.09256782 0.072024874 -0.029976584
000050 30 cb 0a 3e 5b 98 d3 3d c1 dd 0b 3e 6a 2f a5 3d
       0.13554072 0.10331794 0.13658811 0.08065684
000060 4f d0 4e 3e f4 15 8f 3d d1 f5 95 bd db ae 2d bd
       0.20196651 0.06986609 -0.073222764 -0.042403083
000070 a5 f4 ce 3d 94 d7 ed 3d d0 2e 40 3b bf 19 d3 3d
       0.10105256 0.11613384 0.0029324777 0.10307645
000080 1d a6 02 bd 31 4e 43 be 66 0b ba 3d b1 c6 cd 3d
       -0.0318967 -0.19072796 0.09084205 0.10047663
000090 42 7b 68 bc 37 48 63 bd 0e a9 eb bd be c2 f8 bc
       -0.014189543 -0.05548879 -0.11506854 -0.030366298
0000a0 47 38 cf 3d bd 05 ff bd 1a 5f 0c be de 59 2a bd
       0.10118156 -0.12452266 -0.13708153 -0.04158961
0000b0 81 3d f9 3c e3 a8 ef bc 6d 9d 13 3c ac dd b1 3d
       0.030424835 -0.029255336 0.009009701 0.08684859
0000c0 f2 b3 f9 3d 0e df af bd d0 97 00 be 31 fa 58 bd
       0.12192525 -0.08587466 -0.12557912 -0.052972976
0000d0 10 1a 50 bd 74 86 15 3e 0b 93 37 bd 6b 22 9a bd
       -0.050806105 0.14602071 -0.044817965 -0.07526096
0000e0 34 61 4d bd 45 f6 97 bd 85 17 eb bd 69 f5 2c be
       -0.05014153 -0.07420019 -0.11479095 -0.16890492
0000f0 a5 1c 8f 3c 25 97 5b 3c 42 e1 24 3e d4 17 1d bc
       0.017469713 0.013402735 0.16101554 -0.009588201

policy_mean_net.0.bias f4 [2]
000000 82 b4 97 bd b5 24 55 bd
       -0.07407476 -0.05203696

policy_stddev_net.0.weight f4 [2, 32]
000000 49 70 b3 3e 3b d7 8c 3d ba 89 16 be 35 a2 84 3e
       0.35046604 0.068769895 -0.14700976 0.25905004
000010 23 ad 52 be da 68 2a bc ae c0 93 3e 04 4a 4f be
       -0.20573859 -0.010400975 0.2885794 -0.20243078
000020 76 42 1a 3e f7 01 0a be 09 d4 c9 3d 32 7b a0 3e
       0.15064415 -0.13477312 0.098548956 0.3134399
000030 cd 8e 7a bc 26 05 ed 3c fc f8 2f 3e db b3 d0 3d
       -0.015292835 0.028933119 0.17184824 0.10190555
000040 01 be 27 3b 0d 63 97 3c f8 22 56 3e d4 fd ce bd
       0.002559543 0.018479848 0.20911777 -0.101070076
000050 6d de 98 3c 0e 90 0a 3d cb ba 80 be e0 74 9c bc
       0.018660748 0.033828788 -0.25142512 -0.0190987
000060 eb 32 0d be 93 13 0e bd a2 3e 96 be f1 97 34 3d
       -0.13788955 -0.034686636 -0.2934466 0.044090215
000070 3f 42 6f 3b d3 9b ac bd 63 00 77 be c2 a6 4d be
       0.0036507992 -0.084281586 -0.24121241 -0.20083144
000080 63 62 73 3e 2a 1d 68 3e 93 03 7d be a6 76 48 3e
       0.23768 0.22667375 -0.24708395 0.19576511
000090 73 34 55 be 8a ca 1d be 89 43 8f 3e 04 41 80 be
       -0.20820789 -0.15409294 0.27981213 -0.25049603
0000a0 c5 b5 be bd c6 95 be bc ad 9c ae 3d db fe 18 3e
       -0.093120135 -0.023264777 0.08525977 0.1494097
0000b0 55 2b be bd b5 56 37 be 3d 90 d0 bd ee f0 54 3e
       -0.09285609 -0.1790417 -0.10183761 0.20795032
0000c0 5d 30 13 bd 3a 4a 21 3e 99 70 da bc 1d ea 4d 3d
       -0.035934795 0.15750971 -0.026665019 0.050272096
0000d0 64 be 13 3e 7f e1 72 be b3 0f 54 be bd 66 7e bd
       0.14428097 -0.23718832 -0.20709114 -0.062109698
0000e0 be 56 2a be b0 a8 a8 3d 9b 33 14 be 4e c3 ef 3d
       -0.16634652 0.082352996 -0.14472811 0.11707173
0000f0 0f 4b b5 bd c6 a3 03 3e 23 c2 8e be 2d f5 1e be
       -0.08852207 0.12855443 -0.2788249 -0.15523215

policy_stddev_net.0.bias f4 [2]
000000 79 c1 23 be 10 e1 36 be
       -0.15991773 -0.17859292
