03/zad_2/REINFORCE_gamma_0_7.pth (torch, 6992 bytes, 8 tensors)

shared_net.0.weight f4 [16, 11]
0	0xbe6789cb	-0.22611158
1	0x3e7ddc42	0.24791053
2	0xbd82a404	-0.0637894
3	0x3e3c9be7	0.18418847
4	0x3d8e7759	0.069563575
5	0xbe28c427	-0.16481076
6	0x3eabf58a	0.3358577
7	0xbda3be25	-0.079952516
8	0x3e126145	0.14294918
9	0xbe204b15	-0.15653642
10	0x3d35f260	0.0444206
11	0xbe55a4a0	-0.2086358
12	0x3d95aa9c	0.07307932
13	0xbcf49efd	-0.029860968
14	0x3e607aeb	0.2192189
15	0xbeabd0a1	-0.3355761
16	0x3d603cde	0.054745547
17	0x3e2b7a0c	0.16745776
18	0xbdd917f5	-0.106002726
19	0x3e614365	0.21998365
20	0x3e7a245f	0.24427937
21	0x3d2b7360	0.041858077
22	0xbd61e048	-0.055145532
23	0xbe789ea5	-0.24279268
24	0xbe5a6a43	-0.21329598
25	0x3e34e85c	0.17666763
26	0x3e08c108	0.13354886
27	0x3e5d5396	0.21613917
28	0xbdcbdb41	-0.09953929
29	0xbe4369cd	-0.19083329
30	0xbd10caa0	-0.03534949
31	0xbe2e9a31	-0.17051007
32	0x3d78bb18	0.0607253
33	0x3e8432a3	0.25819883
34	0xbe88a054	-0.2668482
35	0xbdf50cfb	-0.119653665
36	0x3e458f13	0.1929286
37	0xbc753fe0	-0.014968842
38	0x3c851db8	0.016249523
39	0xbe277500	-0.16353226
40	0x3e79dd0c	0.24400729
41	0x3e265b11	0.16245677
42	0xbe539f8a	-0.20666328
43	0x3e07f3f0	0.13276649
44	0xbe1039be	-0.14084527
45	0x3e218bb5	0.1577595
46	0xbd07a641	-0.033117536
47	0xbe757e51	-0.23973967
48	0xbeb58577	-0.35453388
49	0x3c3705b6	0.011170795
50	0x3e83152b	0.25602087
51	0xbd81e93f	-0.06343316
52	0x3e9d2179	0.306896
53	0xbd8301fa	-0.063968614
54	0xbda353ce	-0.07974969
55	0xbdf15eec	-0.11785683
56	0xbd0368f2	-0.032082506
57	0x3e2cad70	0.16863036
58	0xbc232bd7	-0.009959183
59	0x3ef010d7	0.46887848
60	0x3ed1c152	0.40967804
61	0xbe659db9	-0.22423448
62	0x3cfb71d1	0.03069392
63	0xbe606741	-0.21914388
64	0xbdac1393	-0.08402171
65	0xbe58400a	-0.21118179
66	0xbe58b9b0	-0.21164584
67	0x3c26bed6	0.010177335
68	0xbe87c101	-0.26514438
69	0x3e10e761	0.14150764
70	0x3e8d00ef	0.27539775
71	0xbe578c90	-0.21049714
72	0x3db3bbae	0.087760314
73	0x3e67eb63	0.22648387
74	0xbdb5b86d	-0.08873067
75	0x3da86b15	0.08223549
76	0xbdebc060	-0.11511302
77	0xbd19cc27	-0.03754821
78	0x3d1416e9	0.03615466
79	0xbd9983be	-0.07495831
80	0xbe5f1b1e	-0.21787688
81	0x3e641359	0.22273006
82	0x3c25662e	0.010095162
83	0xbdd25a4d	-0.1027113
84	0x3e89a156	0.26880902
85	0x3e23985e	0.15976092
86	0x3e53018b	0.20606057
87	0x3e298f46	0.1655856
88	0x3e6ea39c	0.233046
89	0x3e0a9ece	0.13537142
90	0x3dcf03ab	0.101081215
91	0xbe00f43c	-0.12593168
92	0xbecf513b	-0.4049166
93	0xbda5f6e6	-0.08103733
94	0x3e2ed3ad	0.17072935
95	0xbe4a49c1	-0.19754697
96	0x3ea2e9d6	0.31819028
97	0x3ea863cc	0.3288864
98	0xbe74fbf9	-0.23924245
99	0x3dd0c66f	0.10194098
100	0x3e51560c	0.2044298
101	0x3e871c46	0.26388758
102	0xbe492dc2	-0.19646361
103	0xbe6c0c20	-0.230515
104	0xbe7c22af	-0.24622606
105	0x3de6e99b	0.112750255
106	0xbdc9a2b6	-0.09845488
107	0x3dc5e56a	0.09662898
108	0xbe7f84d3	-0.24953012
109	0x3d28f500	0.041249275
110	0x3ded49e2	0.11586358
111	0xbe75bb98	-0.23997343
112	0xbdc96b46	-0.09834914
113	0x3e39ff6b	0.1816384
114	0x3e5b9461	0.21443321
115	0x3e200d7e	0.15630147
116	0xbea27acf	-0.3173432
117	0xbe873cfe	-0.2641372
118	0xbd7f3036	-0.062301837
119	0x3d4cda32	0.050012775
120	0x3d1bdd10	0.03805262
121	0x3dd3f376	0.10349171
122	0xbe843df8	-0.25828528
123	0x3e8ca62a	0.27470523
124	0x3e4d5746	0.20052823
125	0x3e963d7c	0.29343784
126	0xbd7396b0	-0.05946988
127	0xbe549c15	-0.20762666
128	0x3e887242	0.26649672
129	0xbc365000	-0.011127472
130	0xbdc7818a	-0.097415045
131	0xbe310b6e	-0.17289516
132	0x3d520112	0.051270552
133	0xbddb35b4	-0.107036024
134	0xbe730b9b	-0.23734896
135	0xbe3b9437	-0.18318258
136	0x3da63667	0.08115845
137	0x3d81035c	0.06299469
138	0xbe9df6d5	-0.3085238
139	0xbd91a4a8	-0.07111484
140	0x3daa09e2	0.08302666
141	0xbe9f83b5	-0.31155172
142	0xbd9baef0	-0.07601726
143	0x3e30b6dd	0.17257257
144	0xbd8dea8b	-0.06929501
145	0x3dd9922a	0.10623582
146	0x3e014c80	0.12626839
147	0xbd90f889	-0.07078654
148	0x3db151df	0.08658194
149	0xbe0c3a18	-0.13694036
150	0xbd929132	-0.071566
151	0x3e905611	0.28190663
152	0xbd543be4	-0.05181493
153	0x3e801e54	0.2502314
154	0x3e761015	0.24029572
155	0xbd981dea	-0.07427581
156	0xbe11490c	-0.14188021
157	0xbd3e449a	-0.046452142
158	0xbe6acd1b	-0.22929804
159	0xbeb4d65a	-0.35319787
160	0x3e561ab4	0.20908624
161	0x3d8466da	0.0646493
162	0x3daf26f7	0.08552354
163	0x3e8fbe98	0.280751
164	0x3d147190	0.036241114
165	0x3e470717	0.19436298
166	0xbda6c732	-0.08143462
167	0xbd9bfeb6	-0.07616942
168	0xbc63acc6	-0.013896173
169	0xbdbf1257	-0.0932967
170	0xbdb376ed	-0.08762918
171	0x3e89d2f0	0.26918745
172	0xbd9ef253	-0.077610634
173	0x3eb4050a	0.35160094
174	0x3e80b56c	0.25138414
175	0x3e43d410	0.19123864

shared_net.0.bias f4 [16]
0	0x3d399829	0.045311127
1	0x3ce8d8af	0.028423635
2	0xbeb60645	-0.35551658
3	0xbe8b5721	-0.27214912
4	0x3e77f22c	0.24213475
5	0xbeb0ab37	-0.34505627
6	0xbe748b3a	-0.23881236
7	0x3e09a680	0.13442421
8	0x3e1527b3	0.14565925
9	0x3e9a711a	0.30164415
10	0xbe384305	-0.17994316
11	0x3dbddb21	0.09270311
12	0xbe0d1c53	-0.13780336
13	0x3d79143d	0.060810316
14	0x3e80d6c1	0.25163844
15	0xbe18fb65	-0.1493965

shared_net.2.weight f4 [32, 16]
0	0x3d96665a	0.07343741
1	0xbe47cb67	-0.19511186
2	0x3e02e7e8	0.12783778
3	0x3e5838ce	0.2111542
4	0xbd52ce17	-0.051466074
5	0x3e8f5049	0.2799094
6	0xbe3ba6a0	-0.18325281
7	0xbda28649	-0.07935769
8	0xbd10b829	-0.03533188
9	0x3e3447b3	0.17605476
10	0xbe2dc5a7	-0.1696993
11	0xbe01c022	-0.12670949
12	0xbe1499ee	-0.14511845
13	0x3b18f121	0.0023337083
14	0xbe4c2d3d	-0.19939132
15	0x3dcd061c	0.10010931
16	0xbe2d8991	-0.16947009
17	0xbe8c7f74	-0.2744099
18	0xbda0a0f1	-0.07843197
19	0x3d6159e1	0.055017356
20	0xbe4f7177	-0.20258127
21	0x3e2c8875	0.16848929
22	0xbdd0cd95	-0.10195462
23	0x3e44f353	0.19233446
24	0xbdb33b67	-0.087515645
25	0x3dbbf30f	0.09177219
26	0x3e1d8a02	0.15384677
27	0xbdc85748	-0.097822726
28	0x3e7de471	0.24794175
29	0x3dca560b	0.09879693
30	0xbe4e1b14	-0.20127517
31	0xbca59d02	-0.020216469
32	0x3e08f440	0.13374424
33	0xbdb68b4a	-0.08913286
34	0xbe012b6c	-0.1261422
35	0x3e30c349	0.17261995
36	0xbdca8d39	-0.09890217
37	0x3e06bf27	0.13158856
38	0x3e0aff9f	0.13574074
39	0x3e6f084d	0.2334301
40	0x3dc98498	0.098397434
41	0x3dd4ae20	0.10384774
42	0x3e452652	0.192529
43	0x3e7f8df7	0.24956499
44	0x3e272c59	0.16325511
45	0x3ddd0106	0.10791211
46	0x3dcb4b9c	0.09926531
47	0xbd3706ac	-0.044684097
48	0x3e10bd2f	0.14134668
49	0x3e69cee3	0.22832827
50	0xbe3f2d4b	-0.18669622
51	0xbb1afa72	-0.0023647812
52	0x3e8ca241	0.2746754
53	0xbe5ab738	-0.21358955
54	0x3d1674d2	0.036732502
55	0xbe65fd3b	-0.22459881
56	0x3e96aceb	0.294288
57	0xbdfb212b	-0.12262186
58	0xbe013406	-0.12617502
59	0x3caef606	0.021357547
60	0x3e0df8a6	0.13864383
61	0xbda59977	-0.08085912
62	0x3e6423ec	0.22279328
63	0x3e6cdf4b	0.23132055
64	0xbe604967	-0.21903001
65	0x3e8249fa	0.25447065
66	0x3dfaad6b	0.12240108
67	0x3e527716	0.2055324
68	0xbc76dc0f	-0.0150671145
69	0xbe02209f	-0.12707756
70	0xbe561e98	-0.20910108
71	0x3d909065	0.07058791
72	0xbdb4cd2c	-0.08828196
73	0x3e52d21d	0.20587964
74	0x3bc03c2f	0.0058665494
75	0xbdca55a3	-0.09879615
76	0x3e2ca5f9	0.16860189
77	0xbe3ed1c1	-0.18634702
78	0x3e61952c	0.22029561
79	0x3dcac59a	0.09900971
80	0xbdbccd9e	-0.09218906
81	0xbd22212a	-0.03958241
82	0x3e810777	0.25201008
83	0xbdc528cf	-0.09626924
84	0xbe3aaa9e	-0.18229148
85	0xbd256e62	-0.040388472
86	0x3df9fc26	0.122062966
87	0x3e693572	0.22774294
88	0xbe1aff71	-0.15136506
89	0xbd255cca	-0.040371694
90	0x3d990ed7	0.074735336
91	0xbe398851	-0.18118407
92	0x3e582298	0.21106946
93	0xbe6485e0	-0.22316694
94	0xbc41944c	-0.011815142
95	0xbe810398	-0.25198054
96	0xbd71eaf2	-0.059061952
97	0x3e1b3a3b	0.15158932
98	0x3e32ad8e	0.17449018
99	0xbd115e24	-0.03549017
100	0x3d619264	0.05507125
101	0xbd0dc2cf	-0.034609612
102	0xbe62e914	-0.22159225
103	0x3d233c51	0.039852444
104	0x3de32481	0.11090947
105	0x3e83f41b	0.25772175
106	0xbdf9a467	-0.121895604
107	0x3e2f4493	0.17116003
108	0x3da63d82	0.081172004
109	0x3dbd25dc	0.09235737
110	0x3e5ddd1d	0.2166638
111	0xbc3c95e8	-0.01151035
112	0x3ba8a326	0.005146402
113	0xbd8bca0a	-0.06825645
114	0x3dd97771	0.10618485
115	0x3da78aa3	0.0818074
116	0xbe6e3552	-0.23262528
117	0x3e1de764	0.154203
118	0xbe32d68b	-0.17464654
119	0x3df0fbcf	0.11766779
120	0x3d1bd7d2	0.03804762
121	0xbdb969de	-0.09053396
122	0x3d333032	0.043747135
123	0x3db6026a	0.08887179
124	0x3e3868a2	0.18008664
125	0x3a238022	0.000623705
126	0x3d93fbd4	0.07225767
127	0xbe395fd3	-0.1810296
128	0xbe7061d1	-0.23474814
129	0xbdd5856e	-0.1042584
130	0xbe3f4021	-0.18676807
131	0x3c43df92	0.011955159
132	0x3e35a8c0	0.17740154
133	0xbd794dd1	-0.060865227
134	0x3e0a1ef2	0.13488367
135	0xbbffca7e	-0.0078061214
136	0x3db79112	0.08963217
137	0x3deafdaf	0.114741676
138	0x3e88363b	0.26603875
139	0x3e884112	0.26612145
140	0x3c81c127	0.015839173
141	0x3c80e2c0	0.015733123
142	0x3e28423a	0.16431513
143	0xbc2252dd	-0.009907451
144	0x3d885dd6	0.06658523
145	0xbe213eb9	-0.15746583
146	0xbd81f6d7	-0.06345909
147	0x3dae15e3	0.08500268
148	0xbdec818a	-0.11548145
149	0x3baf9a70	0.0053589866
150	0x3bf03ae8	0.007331241
151	0xbd8d4e9d	-0.0689976
152	0x3d643849	0.05571774
153	0x3debed55	0.11519877
154	0xbe152a56	-0.14566931
155	0xbc1a2aff	-0.009409665
156	0xbdd9e4f9	-0.10639376
157	0x3e8ca2ba	0.274679
158	0x3e022d28	0.12712538
159	0xbde0dde1	-0.1097982
160	0xbdbd5e60	-0.09246516
161	0xbe742db8	-0.23845565
162	0x3e0b30a3	0.13592772
163	0x3e69c1ca	0.22827831
164	0x3e28bc92	0.16478184
165	0xbe26fb95	-0.16306908
166	0x3da7f490	0.082009435
167	0x3df99886	0.12187295
168	0xbe0fc02e	-0.14038154
169	0xbdcb82aa	-0.099370316
170	0xbe5ca9aa	-0.21549097
171	0x3d3dfa32	0.046381183
172	0x3e745ed8	0.23864305
173	0x3e28805a	0.16455212
174	0xbe715b2f	-0.2356994
175	0x3cf9687e	0.030445334
176	0xbe369e8a	-0.17833915
177	0x3c388f46	0.011264628
178	0x3ddad5a5	0.10685281
179	0xbe57813d	-0.21045394
180	0x3dc165d4	0.0944325
181	0xbe35acc4	-0.17741686
182	0x3e420204	0.18946081
183	0x3e1f7489	0.15571798
184	0x3d51984b	0.05117063
185	0x3d87668b	0.066113554
186	0x3e3431e7	0.17597161
187	0x3d09d5a8	0.033651024
188	0xbe8a6447	-0.2702963
189	0xbdf977f9	-0.12181086
190	0xbb91fb53	-0.004455009
191	0xbcd0b7be	-0.02547824
192	0xbbe6cd60	-0.0070435256
193	0xbcd6ce59	-0.026221441
194	0x3dcc2cbd	0.09969471
195	0xbc8f4d56	-0.017492931
196	0xbdc93055	-0.09823672
197	0x3e1ec5e5	0.15505178
198	0xbde64dd4	-0.11245313
199	0x3e4a7c1f	0.19773911
200	0x3d07f4ba	0.033192374
201	0x3ba289d6	0.004960279
202	0x3d2164a2	0.03940261
203	0xbdf78d99	-0.120875545
204	0x3d8dc5fd	0.06922529
205	0x3ddd731a	0.108129695
206	0x3e58edb5	0.21184428
207	0xbbba8367	-0.005691934
208	0x3e82a2a9	0.25514725
209	0xbe622f3e	-0.22088334
210	0x3d305760	0.043052077
211	0xbe6534a4	-0.22383362
212	0xbc4d47f0	-0.012529358
213	0xbdc54c38	-0.09633678
214	0xbe4265ce	-0.18984148
215	0x3e7ef13a	0.24896708
216	0xbdff89b2	-0.12477435
217	0xbe1717b5	-0.14755137
218	0x3e7af34c	0.24506873
219	0xbd7a2fe4	-0.06108083
220	0xbafcb277	-0.0019279261
221	0x3e69ede0	0.22844648
222	0xbdc7c26c	-0.0975388
223	0xbe569a69	-0.2095734
224	0xbe3f8a9a	-0.18705216
225	0x3d29d939	0.041466925
226	0x3dbe6f0e	0.09298526
227	0xbd95cba4	-0.07314232
228	0xbe5740d6	-0.21020827
229	0x3e87056d	0.26371327
230	0x3e6afd1e	0.22948119
231	0xbdc81868	-0.0977028
232	0xbcf2d7d6	-0.029643934
233	0x3d72db9f	0.05929148
234	0xbd5b6ea1	-0.0535723
235	0x3e1de031	0.15417553
236	0xbdcc81f3	-0.09985723
237	0xbe3a630b	-0.18201844
238	0xbe585c79	-0.21129026
239	0x3d1f0067	0.038818743
240	0xbe794778	-0.2434367
241	0xbe97895e	-0.2959699
242	0x3e92fd35	0.28708807
243	0x3c0b9335	0.008518984
244	0xbe9c5f8c	-0.30541646
245	0xbd6ad4e6	-0.057331942
246	0x3e18701c	0.14886516
247	0xbe209ab1	-0.1568401
248	0x3e03d8f2	0.12875727
249	0xbe8b70aa	-0.27234393
250	0x3e8d7e5c	0.27635467
251	0x3c788c2b	0.015170137
252	0xbd9a9065	-0.07547072
253	0xbbdae296	-0.006679843
254	0xbe84f54b	-0.25968394
255	0x3d399114	0.045304373

shared_net.2.bias f4 [32]
0	0xbd3bd24b	-0.045854848
1	0x3d0dbf01	0.034605984
2	0x3e1aadad	0.15105315
3	0x3e5e29db	0.21695654
4	0xbdfd6579	-0.1237287
5	0xbe2aa49e	-0.16664359
6	0x3ea1664a	0.31523353
7	0x3d39afd9	0.045333717
8	0xbe05d2e0	-0.13068724
9	0x3db329a4	0.08748177
10	0xbe0ac629	-0.13552155
11	0x3e7cfb28	0.24705184
12	0xbe8ac967	-0.27106783
13	0x3e44be6b	0.19213264
14	0xbe7003d8	-0.23438966
15	0xbeae6667	-0.34062502
16	0x3e3bfeba	0.18358889
17	0xbd46ab00	-0.048502922
18	0x3d65795e	0.056023948
19	0xbe084304	-0.13306814
20	0xbe174868	-0.14773715
21	0xbd66c8a9	-0.05634371
22	0x3c476b5d	0.0121715935
23	0x3e3dc095	0.18530495
24	0xbe01047c	-0.12599367
25	0x3e02c728	0.12771285
26	0x3eb91858	0.36151385
27	0xbd5517bd	-0.05202459
28	0xbdc97b18	-0.098379314
29	0xbe9ddfd0	-0.30834818
30	0xbd84a41e	-0.06476615
31	0x3e7089f9	0.23490132

policy_mean_net.0.weight f4 [2, 32]
0	0xbd589ff6	-0.052886926
1	0x3ca3a846	0.0199777
2	0x3e21128f	0.15729736
3	0xbd6d7d34	-0.05798073
4	0xbe060d12	-0.13090923
5	0xbde06c70	-0.10958183
6	0x3e281447	0.16413985
7	0x3c9940b4	0.01870761
8	0x3dbc9914	0.09208885
9	0xbbda0a7c	-0.006654082
10	0xbdb52d77	-0.08846562
11	0xbdc05b43	-0.09392407
12	0xbd1b916c	-0.037980482
13	0x3e3e2982	0.18570521
14	0xbd824847	-0.06361442
15	0x3df9a453	0.121895455
16	0xbe073706	-0.13204584
17	0xbcea6a53	-0.028615152
18	0xbddbbb8f	-0.10729133
19	0xbd8a0a54	-0.06740251
20	0x3e1e74de	0.15474269
21	0x3dc781b7	0.09741538
22	0xbd95ce0a	-0.073146895
23	0x3e25409b	0.16137926
24	0x3e2cd7b3	0.16879158
25	0x3e2bc6ec	0.16775101
26	0x3ddf1118	0.10891932
27	0x3dd4ff95	0.10400311
28	0xbd02fa0e	-0.031976752
29	0x3daf24fa	0.085519746
30	0x3ce6a4d7	0.028154774
31	0x3d6bc899	0.05756435
32	0x3d86fef5	0.06591598
33	0xbdbc58ef	-0.0919665
34	0xbdc89777	-0.097945146
35	0x3de40524	0.11133793
36	0x3c5cfa30	0.013487384
37	0x3cf5adbb	0.029990068
38	0xbdd88e8d	-0.105740644
39	0x3d58b34e	0.052905373
40	0x3d882d61	0.0664928
41	0x3cb60f00	0.02222395
42	0xbe017fab	-0.12646358
43	0xbdf9a5a0	-0.121897936
44	0xbb3a2a03	-0.0028406389
45	0x3e054981	0.13016321
46	0x3dca61ff	0.098819725
47	0x3b455a1e	0.0030113528
48	0x3d9a24e4	0.075265676
49	0xbaa2cfea	-0.0012421582
50	0xbd83dbd9	-0.06438417
51	0xbd5bc786	-0.053657077
52	0x3d9a1058	0.075226486
53	0xbde4b0f2	-0.11166562
54	0x3e1a9fd4	0.15100032
55	0x3dccd047	0.10000663
56	0x3dabe4b8	0.08393234
57	0x3c99b794	0.018764295
58	0x3d1a2542	0.037633188
59	0x3c969487	0.01838137
60	0x3db46eca	0.08810194
61	0xbdd60a44	-0.10451177
62	0x3d77de16	0.060514532
63	0xbd90d599	-0.070719905

policy_mean_net.0.bias f4 [2]
0	0xbc2b5638	-0.010457568
1	0xbe0f03b6	-0.1396626

policy_stddev_net.0.weight f4 [2, 32]
0	0x3dbd413b	0.09240957
1	0x3e136992	0.1439574
2	0x3d834517	0.06409662
3	0xbe95e11e	-0.29273313
4	0xbd81d579	-0.06339545
5	0x3e4ad45d	0.19807573
6	0xbe9f6da3	-0.31138334
7	0x3de7a092	0.11309923
8	0x3dce1ae7	0.10063725
9	0xbd739b65	-0.059474368
10	0x3c81dd01	0.015852453
11	0x3ca2ac91	0.019857677
12	0x3def6b90	0.11690438
13	0xbd91f43f	-0.07126664
14	0x3ea6d7b8	0.32586455
15	0x3e898d8e	0.2686581
16	0xbe4a655c	-0.19765228
17	0xbd722e13	-0.05912597
18	0x3e0eaec1	0.13933851
19	0x3e7d6096	0.24743876
20	0x3e28c0f8	0.16479862
21	0x3d39649f	0.045261975
22	0xbc119cfb	-0.008887525
23	0xbbf6d6aa	-0.007532914
24	0x3e933094	0.28748
25	0x3db66938	0.08906788
26	0xbe643cf2	-0.22288874
27	0x3e36dae2	0.17856935
28	0x3ea457ee	0.32098335
29	0x3e8e1ddf	0.27757165
30	0x3d0c6185	0.03427269
31	0xbe96358c	-0.29337728
32	0x3d878d5f	0.06618761
33	0x3da41aa1	0.080128916
34	0x3e2089e5	0.15677603
35	0xbe6f8616	-0.23390993
36	0x3dc0bad9	0.09410638
37	0x3e9bad36	0.30405587
38	0xbdb689bf	-0.08912992
39	0xbc8a78fb	-0.016903391
40	0xba5b0f2b	-0.0008356447
41	0x3d7e2143	0.06204344
42	0x3e85c799	0.26128843
43	0xbe7e6f6e	-0.24847195
44	0x3dc7863e	0.097424015
45	0xbd75fe49	-0.06005696
46	0x3e64a7f3	0.22329693
47	0x3e5cfd2a	0.2158095
48	0xbe93cbdf	-0.2886648
49	0x3e0f7d49	0.14012636
50	0x3dd7125e	0.1050155
51	0x3e083802	0.13302615
52	0xbbeace66	-0.007165718
53	0x3e6812bb	0.22663395
54	0x3dbf5a96	0.0934345
55	0xbe8064be	-0.2507686
56	0x3e56c65e	0.20974109
57	0x3e172c7d	0.14763065
58	0xbe804329	-0.2505124
59	0x3e495ea6	0.19665012
60	0x3db2c79c	0.08729479
61	0x3de1ea2a	0.110309914
62	0xbd7011c6	-0.0586107
63	0xbe13a28a	-0.14417472

policy_stddev_net.0.bias f4 [2]
0	0xbe8a1dda	-0.269759
1	0xbda5d72a	-0.0809768
